distillog/datasets/HDFS/model/noKD.pth (torch, 3299 bytes, 6 tensors)

gru.weight_ih_l0 f4 [12, 30]
-0.00027243112 -0.00027243112 -0.00027243112 -0.00027243112 -0.00027243112 -0.00027243112 -0.00027243112 0.58933157
-0.5079706 -0.6070432 -0.865626 -0.14177851 0.43888366 0.8996779 -0.34249178 0.6647299
1.1192223 -0.2278094 -1.2276659 0.4146424 0.18320234 0.11299226 0.4121769 0.6755424
0.37886342 0.026092323 0.3485505 0.33977416 0.2755006 -0.00027243112 0.27113643 -0.4559631
-0.121937566 0.111236416 -0.15999456 -0.4571005 -0.21449593 0.26049834 0.18121974 0.15199952
0.16525811 0.1393027 -0.07090267 0.31145084 0.069125414 -0.4464206 0.3366511 -0.43014666
0.123920545 -0.23004234 0.23490675 -0.03206645 -0.39874348 -0.003159412 -0.26389712 -0.31855825
0.039510448 -0.42405912 0.006859692 -0.24665757 -0.09029608 -0.082266584 -0.07790022 -0.10070772
-0.1014302 -0.114468105 -0.09681204 -1.6250905 0.22617704 0.28285474 -0.7250036 -0.49347332
-0.18230803 -1.1671638 0.60466665 -1.8906553 -0.16454619 -0.0615141 0.67447865 -0.2276131
-0.45024562 0.09959314 -0.07000683 -0.5657901 0.38943756 -0.16968134 0.41042396 0.015116618
-0.91729397 -0.09261982 -0.0031380493 -0.0031523996 -0.0030743745 -0.002329013 -0.0027429322 -0.0031483092
-0.0024820478 -0.16775165 0.0431744 0.006309724 0.023100577 0.03803608 -0.32319638 -0.38355672
0.14321457 -0.13306841 0.06619076 -0.09492215 0.12273455 0.05511743 -0.12013857 0.117820725
0.16570823 0.019936927 0.03880017 0.027483536 -0.114909574 -0.13224684 -0.03427945 -0.0028753353
0.08575943 -0.010723138 -0.39171568 -0.20603447 0.14396983 0.006059679 -0.27133173 0.18816803
-0.49921164 -0.093560144 0.038033385 -0.09355855 -0.5610221 -0.5306108 0.16816284 -0.43491068
0.17943516 0.32693547 -0.6378764 -0.4478236 -0.111732595 -0.38005292 -0.55463594 0.31001917
0.17308964 -0.23427236 -0.53493315 0.23693414 0.1532032 0.2741347 0.036492225 0.12379136
0.020485057 0.11296426 0.15603165 0.11323037 0.20115645 0.12233607 0.057270896 0.2562352
0.048636973 -0.03664976 -0.043080583 0.22390306 0.19696555 0.26062486 0.26193643 -0.070970975
0.09072386 0.19400512 0.11490975 0.10788851 -0.032820746 0.058196537 0.09935141 0.114137165
0.105041966 0.13604291 0.12533203 0.12715113 -0.31448624 -0.18561722 -0.09491888 0.3009449
0.030067274 0.42077845 0.34049454 0.28635567 0.02530668 -0.12486958 0.02116145 0.048900016
0.21746297 0.47380924 -0.36129773 0.39214128 -0.2472487 -0.028641986 -0.00015311004 0.17880216
0.4247517 -0.36882728 -0.062193878 -0.028387593 -0.07457924 -0.1986824 0.04246741 0.30043548
-0.20734479 -0.06107825 0.07253897 0.071832284 0.0612139 0.07404181 0.070814766 0.07247677
0.07370106 0.21623413 0.33812088 0.1019719 -0.11900376 0.035500027 0.4238534 0.15525495
0.32668173 0.22360852 0.42521036 0.05949788 0.0058342568 0.13725077 0.07455713 -0.03741119
-0.11284622 -0.019473828 0.026263693 0.1044665 0.115553215 0.004557103 0.026503876 0.07529727
0.04429683 -0.085481316 -0.12406403 -0.12666123 -0.1365241 -0.14204721 0.037371542 -0.19637364
-0.093485475 0.58653575 -0.054791693 -0.33778498 0.14812765 -1.4556018 0.47090846 -0.4192071
00000000: 16d5 8eb9 16d5 8eb9 16d5 8eb9 16d5 8eb9
00000010: 16d5 8eb9 16d5 8eb9 16d5 8eb9 6fde 163f
00000020: 5c0a 02bf 2f67 1bbf aa99 5dbf 632e 11be
00000030: 5cb5 e03e 4a51 663f 155b afbe bd2b 2a3f
00000040: ad42 8f3f de46 69be 2824 9dbf 024c d43e
00000050: 6599 3b3e 7c68 e73d da08 d33e 59f0 2c3f
00000060: 63fa c13e 91bf d53c 3675 b23e e1f6 ad3e
00000070: 6a0e 8d3e 16d5 8eb9 65d2 8a3e ff73 e9be
00000080: 67ba f9bd ebcf e33d 9dd5 23be 1409 eabe
00000090: d2a4 5bbe 0a60 853e ab91 393e c3a5 1b3e
000000a0: 6c39 293e 5ea5 0e3e 6b35 91bd 7c76 9f3e
000000b0: a091 8d3d 3e91 e4be 885d ac3e 2f3c dcbe
000000c0: 0eca fd3d 3890 6bbe 658b 703e 1c58 03bd
000000d0: 1b28 ccbe 230e 4fbb 861d 87be 111a a3be
000000e0: b5d5 213d 471e d9be 44c7 e03b cd93 7cbe
000000f0: 27ed b8bd 627b a8bd 278a 9fbd d93f cebd
00000100: a3ba cfbd 416e eabd 6445 c6bd f702 d0bf
00000110: f49a 673e 56d2 903e d699 39bf 89a8 fcbe
00000120: f5ae 3abe a065 95bf 6fcb 1a3f fe00 f2bf
00000130: cc7e 28be 35f6 7bbd a2aa 2c3f 6913 69be
00000140: 9886 e6be 7df7 cb3d be5f 8fbd 9fd7 10bf
00000150: 5c64 c73e f2c0 2dbe 1723 d23e b1ab 773c
00000160: c7d3 6abf 76af bdbd bba7 4dbb 7d98 4ebb
00000170: 727b 49bb 5ba2 18bb c4c2 33bb dd53 4ebb
00000180: daa9 22bb 17c7 2bbe a4d7 303d cdc1 ce3b
00000190: 6c3d bd3c b8cb 1b3d ff79 a5be 8c61 c4be
000001a0: d7a6 123e 1643 08be 058f 873d 8b66 c2bd
000001b0: 405c fb3d d0c2 613d 360b f6bd fe4b f13d
000001c0: 6baf 293e c452 a33c edec 1e3d 2725 e13c
000001d0: b655 ebbd b76b 07be 9c68 0cbd 1f70 3cbb
000001e0: a4a2 af3d 1ab0 2fbc f58e c8be b3fa 52be
000001f0: d46c 133e 4690 c63b feeb 8abe 1faf 403e
00000200: ab98 ffbe 769c bfbd e5c8 1b3d a09b bfbd
00000210: 259f 0fbf 1cd6 07bf e132 2c3e 9dac debe
00000220: dabd 373e 1664 a73e de4b 23bf 2349 e5be
00000230: 0fd4 e4bd 4c96 c2be 9ffc 0dbf d5ba 9e3e
00000240: 693e 313e 18e5 6fbe 61f1 08bf dd9e 723e
00000250: 4de1 1c3e 625b 8c3e df78 153d 5386 fd3d
00000260: 47d0 a73c ce59 e73d c3c6 1f3e 53e5 e73d
00000270: f5fb 4d3e 558b fa3d e394 6a3d 4331 833e
00000280: 9037 473d 0f1e 16bd 4475 30bd d846 653e
00000290: 56b1 493e 9f70 853e 881c 863e 3b59 91bd
000002a0: 6ecd b93d 47a9 463e ce55 eb3d a7f4 dc3d
000002b0: 0c6f 06bd 7e5f 6e3d c178 cb3d bfc0 e93d
000002c0: 3e20 d73d d54e 0b3e 0a57 003e e833 023e
000002d0: 5704 a1be 7112 3ebe d464 c2bd 7315 9a3e
000002e0: a54f f63c 4670 d73e 4d55 ae3e 369d 923e
000002f0: f44f cf3c 9fbb ffbd c75a ad3c 624b 483d
00000300: 9dae 5e3e 2097 f23e 04fc b8be bec6 c83e
00000310: c32e 7dbe 99a2 eabc 2a8c 20b9 ea17 373e
00000320: 0e79 d93e eed6 bcbe 02bf 7ebd 198d e8bc
00000330: 00bd 98bd 6673 4bbe 4ff2 2d3d aed2 993e
00000340: 3152 54be 302d 7abd 508f 943d ce1c 933d
00000350: 6dbb 7a3d 3ca3 973d 5507 913d b36e 943d
00000360: 95f0 963d 7b6c 5d3e 2e1e ad3e a5d6 d03d
00000370: 3eb8 f3bd 7a68 113d 5003 d93e 27fb 1e3e
00000380: d442 a73e a2f9 643e 2cb5 d93e 0db4 733d
00000390: 4b2d bf3b 778b 0c3e 69b1 983d 7a3c 19bd
000003a0: eb1b e7bd 9487 9fbc f526 d73c 88f2 d53d
000003b0: 2aa7 ec3d c053 953b a81e d93c 7535 9a3d
000003c0: 9870 353d d410 afbd 4815 febd 7bb3 01be
000003d0: f9cc 0bbe d374 11be e712 193d 2c16 49be
000003e0: 5075 bfbd 3527 163f 416d 60bd 27f2 acbe
000003f0: c6ae 173e 2951 babf ea1a f13e 50a2 d6be

gru.weight_hh_l0 f4 [12, 4]
-0.20993897 0.4536098 -0.03272193 -0.052545346 0.4971636 0.69540626 -0.92060524 -0.27859646
-0.10126277 0.22112544 -0.07188554 -0.45476046 -0.13777085 0.47550476 -0.44003215 -0.26391578
-1.0341109 -0.9910398 1.150673 -0.14103626 0.36498764 -0.105619885 0.047360506 0.4193685
-0.49514854 -0.50845337 0.6169634 0.51698214 0.16497475 -0.36053452 0.13356234 0.34642544
0.13296276 -0.5136495 -0.59991556 0.23578748 1.0143971 0.30708387 -0.6958245 -0.87611175
-0.6829691 -0.8749094 1.0316755 0.10880622 0.30207998 -0.4161775 0.20250784 0.634897
00000000: 3efa 56be 8b3f e83e 6e07 06bd ca39 57bd
00000010: 3a8c fe3e 2506 323f c9ac 6bbf 32a4 8ebe
00000020: db62 cfbd b56e 623e ba38 93bd 5dd6 e8be
00000030: cd13 0dbe 5c75 f33e e54b e1be f81f 87be
00000040: bf5d 84bf c9b4 7dbf 4149 933f cf6b 10be
00000050: a9df ba3e 3d4f d8bd 17fd 413d 78b7 d63e
00000060: 1c84 fdbe 002a 02bf 50f1 1d3f f158 043f
00000070: 24ef 283e fb97 b8be 91c4 083e ad5e b13e
00000080: 6427 083e 897e 03bf 1194 19bf 4672 713e
00000090: c4d7 813f 193a 9d3e 8e21 32bf dc48 60bf
000000a0: 10d7 2ebf 10fa 5fbf f10d 843f ccd5 de3d
000000b0: 3aaa 9a3e 3815 d5be 375e 4f3e 9c88 223f

gru.bias_ih_l0 f4 [12]
0.06322509 0.14545354 0.2579675 0.13822158 0.22477998 0.5206303 -0.15664607 -0.08455423
0.022764698 0.71728283 0.21583138 -0.62233436
00000000: 287c 813d c6f1 143e 5114 843e f589 0d3e
00000010: b92c 663e 0748 053f d467 20be c52a adbd
00000020: 087d ba3c d99f 373f e702 5d3e 4e51 1fbf

gru.bias_hh_l0 f4 [12]
0.43141866 0.72421324 -0.041803412 0.25046042 -0.053689256 0.26217332 0.0023218675 0.5039126
0.21888155 0.635396 0.24965106 -0.6374338
00000000: e8e2 dc3e 0a66 393f 0e3a 2bbd 593c 803e
00000010: 44e9 5bbd 953b 863e 792a 183b 6b00 013f
00000020: 7c22 603e 50a9 223f 87a4 7f3e dd2e 23bf

fc.weight f4 [2, 4]
-1.7585473 -3.1714284 2.538469 -0.9310678 2.3475494 2.403905 -2.637436 0.29820028
00000000: 1418 e1bf aff8 4ac0 4776 2240 765a 6ebf
00000010: 403e 1640 94d9 1940 c0cb 28c0 b5ad 983e

fc.bias f4 [2]
0.35162547 -1.1041367
00000000: 4108 b43e 5a54 8dbf
