distillog/datasets/HDFS/model/student.pth (torch, 3299 bytes, 6 tensors)

gru.weight_ih_l0 f4 [12, 30]
-3.8778334 -3.6484458 -3.7071168 -4.099546 -3.6280844 -3.4260304 -3.4736567 8.793734
-1.5922066 -3.875087 -1.7926431 -4.8819804 2.9695437 -2.329092 1.3868221 1.4487618
1.7663932 0.39866284 -2.4575083 3.1265652 -6.27432 6.337963 5.5366035 2.4851718
12.193678 -12.95093 5.628906 8.015061 -2.774074 -4.08628 0.048640102 -0.23997296
0.48759344 0.4544551 -0.30142978 0.2164211 0.031303786 9.823541 -2.121908 -4.829622
0.34263197 -1.5327479 2.0808568 6.605678 -0.84687036 6.1018214 8.739462 -6.792793
-4.8879423 6.765571 2.373753 1.5849977 -1.1808089 -1.1088175 5.4326677 -1.6873444
5.389903 7.8993583 -1.9257778 -0.39452514 -1.0073698 -1.3947318 -1.5165012 -1.3415318
-1.5264516 -1.1493965 -1.3268447 1.2628407 -0.49329695 -0.8186927 3.0316908 4.6830063
-2.7807188 4.189963 0.11913792 1.3660603 1.1662368 -4.2942114 -4.5744767 1.2310218
4.125924 -2.1923492 -4.4322214 -3.4769921 -6.366647 -0.72376174 0.79523146 4.2045503
1.5197682 -1.5814267 -0.567838 -0.40908766 -0.42629385 0.13847256 -0.2784964 -0.56611377
-0.24122082 0.88378894 0.8258098 -1.0565261 -0.38461336 -0.93281764 0.36620668 0.19176859
1.2514262 0.077260524 1.3724164 -0.8201442 -0.21050136 -1.6602268 0.3248722 -1.185914
0.07598469 0.39070183 -1.3713813 1.0391815 -0.5021216 0.7914497 0.30003884 -0.31394514
-0.80583197 -0.55938435 -0.98681384 -0.626075 -0.56376934 -1.1518903 -1.1709907 -0.9289696
0.08554339 -1.1388159 -0.76631325 -0.24832086 -0.93499345 -1.2963747 -1.437432 -0.9436824
-0.47024754 -0.793613 -0.5374469 -1.3856612 -0.523731 -0.7038573 -0.66854376 -0.16595003
-0.8042175 -0.8308615 -0.69520944 -0.91608715 -1.087105 -1.1506727 -1.2558725 -0.9288679
-1.6066107 -0.6943233 -1.4325551 -1.2203034 -0.9120084 -1.1271464 -1.726395 -1.5378703
-2.3220801 -1.4802006 -1.3505865 0.0060858233 -0.6588579 -0.5801072 0.81663984 -0.51125944
-3.4739058 0.053488653 -0.49292442 -0.42090845 -1.2258064 -1.075267 -1.3180808 -0.9375526
-1.5844241 -1.0843096 -0.95326805 -1.2524372 -0.37222356 0.09380819 -0.0056983386 -0.06907341
0.45957825 -0.018609174 -0.05075478 0.6613654 3.0147266 -0.25181934 0.68807906 1.9868124
0.5842029 5.988168 -1.8411688 1.3422581 1.6256157 -3.5804224 -0.31874338 2.9699848
6.2259097 -2.312295 -0.42596588 1.2108098 -3.4123743 3.8434868 0.21531613 6.79618
-0.29923597 0.5260092 0.050382532 0.34045398 0.09988019 -0.54886395 0.07669361 0.2146456
-0.40393257 0.036788214 -5.6608806 0.8889014 -0.058614064 1.3871486 1.3818079 4.285738
-0.6681048 -0.36871767 0.57520145 -1.6054196 -0.94312274 4.270746 2.1383245 0.48549697
-0.6165103 1.0987196 -1.4869885 -0.42836675 0.5042341 2.907274 0.90592784 0.3498173
0.102117375 -0.3898832 -0.35284746 -0.16212876 -0.32319206 0.11817242 0.27350605 0.19012752
2.4132793 -1.4464954 2.0593724 -0.2712926 1.3843074 0.17551734 -2.514475 2.7121315
00000000: 6c2e 78c0 2380 69c0 6741 6dc0 7b2f 83c0
00000010: 8932 68c0 1544 5bc0 6450 5ec0 22b3 0c41
00000020: 6dcd cbbf 6d01 78c0 5475 e5bf 2f39 9cc0
00000030: 010d 3e40 d80f 15c0 6383 b13f 0771 b93f
00000040: 2c19 e23f 891d cc3e d147 1dc0 a519 4840
00000050: 3bc7 c8c0 98d0 ca40 db2b b140 0e0d 1f40
00000060: 4e19 4341 0237 4fc1 ff1f b440 b13d 0041
00000070: 6e8a 31c0 cec2 82c0 d83a 473d 79bb 75be
00000080: d9a5 f93e 57ae e83e 0155 9abe 7e9d 5d3e
00000090: 6638 003d 392d 1d41 57cd 07c0 438c 9ac0
000000a0: 756d af3e 1531 c4bf c22c 0540 b761 d340
000000b0: 7fcc 58bf 1f42 c340 d6d4 0b41 8f5e d9c0
000000c0: 066a 9cc0 8f7f d840 92eb 1740 34e1 ca3f
000000d0: bf24 97bf bbed 8dbf 6ad8 ad40 e7fa d7bf
000000e0: 167a ac40 8bc7 fc40 e37f f6bf 33ff c9be
000000f0: 7ef1 80bf 9286 b2bf b61c c2bf 50b7 abbf
00000100: c462 c3bf 6d1f 93bf 0cd6 a9bf c4a4 a13f
00000110: 6b91 fcbe d895 51bf 3907 4240 30db 9540
00000120: 4cf7 31c0 2d14 8640 95fe f33d 10db ae3f
00000130: 3f47 953f 2e6a 89c0 1d62 92c0 1f92 9d3f
00000140: 9207 8440 734f 0cc0 c2d4 8dc0 0a87 5ec0
00000150: 92bb cbc0 7348 39bf 4a94 4b3f ad8b 8640
00000160: c487 c23f 316c cabf d55d 11bf f073 d1be
00000170: 3043 dabe c0cb 0d3e 1597 8ebe d5ec 10bf
00000180: 9702 77be fe3f 623f 4568 533f 3f3c 87bf
00000190: 0bec c4be 23cd 6ebf 717f bb3e fc5e 443e
000001a0: bc2e a03f c43a 9e3d 57ab af3f f8f4 51bf
000001b0: ab8d 57be 5082 d4bf a655 a63e 08cc 97bf
000001c0: dc9d 9b3d 120a c83e 6c89 afbf e603 853f
000001d0: 0b8b 00bf 739c 4a3f b19e 993e 6bbd a0be
000001e0: 014b 4ebf d033 0fbf d59f 7cbf 7446 20bf
000001f0: 3053 10bf 2471 93bf 06e3 95bf f4d0 6dbf
00000200: 5f31 af3d b8c4 91bf 1b2d 44bf d347 7ebe
00000210: bb5b 6fbf 9bef a5bf c6fd b7bf 2b95 71bf
00000220: 49c4 f0be 392a 4bbf 1f96 09bf 595d b1bf
00000230: 3c13 06bf fe2f 34bf af25 2bbf ceee 29be
00000240: 33e1 4dbf 57b3 54bf 3ff9 31bf b084 6abf
00000250: 4226 8bbf 3e49 93bf 6ec0 a0bf 49ca 6dbf
00000260: 6ba5 cdbf 2cbf 31bf f75d b7bf e732 9cbf
00000270: 6279 69bf 5546 90bf 83fa dcbf efd8 c4bf
00000280: f69c 14c0 3777 bdbf 05e0 acbf 966b c73b
00000290: e9aa 28bf e881 14bf 4f0f 513f e6e1 02bf
000002a0: 7954 5ec0 eb16 5b3d 9760 fcbe 5081 d7be
000002b0: 39e7 9cbf 59a2 89bf dfb6 a8bf 7203 70bf
000002c0: 69ce cabf a8ca 8abf 6009 74bf dd4f a0bf
000002d0: 1694 bebe 821e c03d 21b9 babb 5c76 8dbd
000002e0: d74d eb3e 4472 98bc 3fe4 4fbd 3e4f 293f
000002f0: 48f1 4040 77ee 80be f325 303f de4f fe3f
00000300: 528e 153f 129f bf40 6bab ebbf 1dcf ab3f
00000310: 2d14 d03f a425 65c0 5532 a3be 3b14 3e40
00000320: a73a c740 a4fc 13c0 3318 dabe d1fb 9a3f
00000330: 5764 5ac0 b0fb 7540 d57b 5c3e 4e7a d940
00000340: 7535 99be 8aa8 063f ea5d 4e3d fc4f ae3e
00000350: fc8d cc3d 5982 0cbf 8a11 9d3d 0ecc 5b3e
00000360: 40d0 cebe 3daf 163d ef25 b5c0 0b8f 633f
00000370: 4d15 70bd 168e b13f 15df b03f c424 8940
00000380: eb08 2bbf 90c8 bcbe 6740 133f 647e cdbf
00000390: 7e70 71bf f4a9 8840 4fda 0840 0f93 f83e
000003a0: 9ed3 1dbf d8a2 8c3f a455 bebf e352 dbbe
000003b0: 7c15 013f c710 3a40 e3ea 673f 411b b33e
000003c0: ea22 d13d c59e c7be 6ca8 b4be 1505 26be
000003d0: 6e79 a5be 6204 f23d fc08 8c3e cab0 423e
000003e0: 2b73 1a40 c326 b9bf c2cc 0340 dde6 8abe
000003f0: fc30 b13f d1ba 333e 29ed 20c0 9093 2d40

gru.weight_hh_l0 f4 [12, 4]
0.5258383 -0.94220716 -0.4474668 -0.5440013 1.0349321 0.002452717 0.9706104 -0.35284233
0.9681752 -2.7946782 -0.5804321 0.3089533 -1.8155304 1.4807043 0.14242864 1.2680653
1.6238477 2.539036 -2.468773 1.1414343 1.7160171 0.5393319 -3.3188882 -0.8915104
0.015786514 1.2325907 -2.4887564 1.3425816 0.48609582 0.2947761 3.1386802 0.92209274
2.5034206 -3.394392 -1.8453808 -0.77334124 -0.6949976 2.0082562 1.9197843 -2.3695683
0.8529392 -1.4148728 1.6635183 -0.48109588 -1.6558641 0.5786385 2.4733267 1.4646025
00000000: 579d 063f 7d34 71bf 5e1a e5be ab43 0bbf
00000010: a878 843f c3bd 203b ec79 783f c0a7 b4be
00000020: 54da 773f 02dc 32c0 3397 14bf 202f 9e3e
00000030: 4d63 e8bf b887 bd3f d0d8 113e f74f a23f
00000040: 3eda cf3f 917f 2240 6000 1ec0 851a 923f
00000050: 73a6 db3f a811 0a3f aa68 54c0 073a 64bf
00000060: b852 813c 88c5 9d3f c947 1fc0 b7d9 ab3f
00000070: 8de1 f83e e5ec 963e 23e0 4840 450e 6c3f
00000080: 0b38 2040 b83d 59c0 7035 ecbf b1f9 45bf
00000090: 5deb 31bf 4587 0040 7ebb f53f 02a7 17c0
000000a0: 395a 5a3f 8d1a b5bf 2bee d43f 3352 f6be
000000b0: 5bf3 d3bf a721 143f fc4a 1e40 1878 bb3f

gru.bias_ih_l0 f4 [12]
-0.15215558 0.33811802 -1.069013 0.7167449 -3.4445696 -2.2609653 0.7267723 0.04727971
0.7423446 -0.6980697 0.9444483 -0.38134438
00000000: acce 1bbe ce1d ad3e 6bd5 88bf 987c 373f
00000010: d473 5cc0 a8b3 10c0 c00d 3a3f 5fa8 413d
00000020: 4c0a 3e3f b2b4 32bf 5dc7 713f 923f c3be

gru.bias_hh_l0 f4 [12]
0.4228703 0.4675862 -0.33066955 1.5864366 -4.003369 -2.804779 1.118818 -0.07182451
0.07424333 0.14800636 0.87619126 0.9298954
00000000: 7582 d83e 7567 ef3e 854d a9be 5b10 cb3f
00000010: 991b 80c0 8081 33c0 6e35 8f3f bb18 93bd
00000020: e30c 983d fb8e 173e 124e 603f a00d 6e3f

fc.weight f4 [2, 4]
-18.541618 24.899673 -6.218172 0.00039768044 18.861183 -24.474508 5.897878 -0.10676945
00000000: 3c55 94c1 8832 c741 44fb c6c0 c47f d039
00000010: b4e3 9641 cbcb c3c1 6bbb bc40 f1a9 dabd

fc.bias f4 [2]
-3.1982045 2.5837066
00000000: 62af 4cc0 735b 2540
