distillog/datasets/HDFS/model/teacher.pth (torch, 644963 bytes, 10 tensors)

gru.weight_ih_l0 f4 [384, 30]
0	0xbb0529c6	-0.0020319088
1	0xbb052d53	-0.0020321205
2	0xbb05330a	-0.002032461
3	0xbb05310b	-0.0020323421
4	0xbb052d0f	-0.0020321046
5	0xbb053521	-0.0020325857
6	0xbb053172	-0.002032366
7	0xbb002609	-0.001955392
8	0xbb71c850	-0.0036893077
9	0xba806f34	-0.0009798766
10	0xbb026810	-0.0019898452
11	0xbae98dd0	-0.0017818753
12	0xbb4401e1	-0.0029908346
13	0xbaac358d	-0.0013138518
14	0xba217def	-0.0006160428
15	0xbb24b7f0	-0.002513405
16	0xba486b1e	-0.0007645356
17	0xbb4cff54	-0.0031280117
18	0xbae951b2	-0.0017800836
19	0xbaab2f7a	-0.0013060414
20	0xba881eac	-0.0010385117
21	0xbb00e290	-0.0019666292
22	0xbb2c1a82	-0.0026260917
23	0xbb1e64cf	-0.0024168973
24	0xbb19647a	-0.0023405836
25	0xb87b706c	-5.9947764e-05
26	0xbb0f2c37	-0.0021846422
27	0xb800fedf	-3.0754945e-05
28	0xbac9f0ce	-0.0015406848
29	0xbb052ce2	-0.0020320942
30	0xbb26e185	-0.002546401
31	0xbb2730e6	-0.0025511323
32	0xbb27515f	-0.0025530679
33	0xbb270be7	-0.0025489272
34	0xbb2733a7	-0.0025512965
35	0xbb276cf4	-0.002554712
36	0xbb274135	-0.0025521044
37	0xbb5f4a8e	-0.0034071538
38	0xbb5b3c0b	-0.0033452536
39	0x3a0493fe	0.0005057453
40	0xbab34dd6	-0.0013679813
41	0xb9db4860	-0.0004182486
42	0xbbc34245	-0.0059588277
43	0xbb466925	-0.0030275073
44	0xba5f6143	-0.0008521268
45	0xbb8bbb31	-0.0042642583
46	0xbb901297	-0.0043967473
47	0x3a0d0ff5	0.0005381101
48	0x3842f723	4.648337e-05
49	0xbbc7420f	-0.006080873
50	0xbb7e4296	-0.0038797013
51	0xbba31667	-0.004977036
52	0xbba80f75	-0.0051287957
53	0xbbaebe79	-0.0053327647
54	0xbbc7a9bd	-0.0060932324
55	0xbb0c1568	-0.0021375064
56	0xbb36f5d0	-0.0027917512
57	0xbb44f973	-0.003005591
58	0xbb26685c	-0.0025391793
59	0xbb2745bd	-0.0025523745
60	0xbc80e47b	-0.015733948
61	0xbc80ffef	-0.015747039
62	0xbc81e7e2	-0.01585764
63	0xbc810e6e	-0.01575395
64	0xbc81d145	-0.015846858
65	0xbc80f9f3	-0.015744185
66	0xbc810e4b	-0.015753886
67	0xbc7f0ea7	-0.015567458
68	0xbc719dc7	-0.01474709
69	0xbba50cbb	-0.005036918
70	0xbc814da4	-0.015784092
71	0xbcb6a158	-0.022293732
72	0xbd3b0ee5	-0.0456685
73	0xbca26e16	-0.019827884
74	0xbc72f573	-0.0148290275
75	0xbca7156b	-0.020395955
76	0xbca4f961	-0.020138444
77	0xbc467c8c	-0.012114655
78	0xbbf921b7	-0.007602896
79	0xbcad7f0f	-0.02117875
80	0xbc75c996	-0.015001675
81	0xbc5d3e2c	-0.013503592
82	0xbc886c92	-0.016653333
83	0xbc4dbc6d	-0.012557131
84	0xbc9948c4	-0.018711455
85	0xbc69d8a6	-0.014272844
86	0xbcaa106b	-0.020759782
87	0xbce02612	-0.027361903
88	0xbc8f2b72	-0.017476771
89	0xbc81dbf2	-0.015851948
90	0xbd28bc2d	-0.041195083
91	0xbd074bc8	-0.033031255
92	0xbd00e194	-0.031465128
93	0xbd09a767	-0.033606913
94	0xbd064de7	-0.032789137
95	0xbd094dbf	-0.03352141
96	0xbd2134e1	-0.03935707
97	0xbcfb7824	-0.030696936
98	0xbcf1a723	-0.029498642
99	0xbcef3ace	-0.029202845
100	0xbd154e0a	-0.036451377
101	0xbd35f560	-0.04442346
102	0xbd3211a0	-0.04347384
103	0xbd272f10	-0.040816367
104	0xbd1ff73d	-0.039054144
105	0xbd15ae09	-0.036542926
106	0xbd001d11	-0.03127772
107	0xbce09837	-0.027416332
108	0xbca52fd8	-0.020164415
109	0xbd256328	-0.040377766
110	0xbd377689	-0.04479078
111	0xbd14c188	-0.03631738
112	0xbd0fe190	-0.035127223
113	0xbd32ad8f	-0.04362255
114	0xbd0ba540	-0.03409314
115	0xbd16f80b	-0.036857646
116	0xbd0e80e7	-0.0347909
117	0xbd006004	-0.031341568
118	0xbd042b41	-0.032267813
119	0xbd1942fb	-0.037417393
120	0xbca1ec21	-0.019765915
121	0xbca317a1	-0.019908728
122	0xbc9e5b20	-0.019330561
123	0xbca05694	-0.019572534
124	0xbc9b852b	-0.018984398
125	0xbc9da634	-0.01924429
126	0xbc9ff470	-0.019525737
127	0xbc93f0ea	-0.018059213
128	0xbc9facbc	-0.019491546
129	0x3c2069d3	0.009790855
130	0xbc908a6d	-0.017644132
131	0xbd12ec4c	-0.03586988
132	0xbc5cc4ff	-0.013474702
133	0xbcba26af	-0.022723524
134	0xbcd4ee03	-0.0259924
135	0xbc8ed28f	-0.017434387
136	0xbca98c27	-0.020696713
137	0xbc228b72	-0.009920942
138	0xbbe5ca32	-0.007012629
139	0xbc967e0b	-0.018370649
140	0xbcad80db	-0.021179607
141	0xbc87f063	-0.016594118
142	0xbc8a8e20	-0.016913474
143	0xbc33d7eb	-0.010976772
144	0xbc653d41	-0.013991655
145	0xbc78a501	-0.015176059
146	0xbd020662	-0.03174437
147	0xbd2a84e2	-0.041630633
148	0xbcca1705	-0.02466918
149	0xbc9f2384	-0.019426115
150	0xbbd2aa7f	-0.006429016
151	0xbbd2104d	-0.0064106346
152	0xbbd2a6dd	-0.006428583
153	0xbbd21c76	-0.006412084
154	0xbbd29717	-0.0064267027
155	0xbbd22d72	-0.006414109
156	0xbbd2cc64	-0.0064330567
157	0xba595392	-0.0008290346
158	0xbc3d840f	-0.01156713
159	0xbbb00595	-0.005371759
160	0xbc0a9ee9	-0.008460739
161	0xbc36ae25	-0.011149918
162	0xbc05a27a	-0.008156413
163	0xbbedfe82	-0.0072630057
164	0xbbecd1e8	-0.007227171
165	0xbb71f81a	-0.0036921562
166	0xbb2cb326	-0.0026351898
167	0xbc04db16	-0.008108875
168	0xbc0f33ec	-0.0087404065
169	0xbb4c8708	-0.0031208415
170	0xbbb8eed7	-0.0056437063
171	0xbb988dbb	-0.0046555675
172	0xbbb04f46	-0.005380544
173	0xbb9a80c8	-0.004715059
174	0xbb3d11f5	-0.0028849815
175	0xbb958fbe	-0.0045642545
176	0xbc0037c5	-0.0078257965
177	0xbc02e9f8	-0.007990353
178	0xbbd11dda	-0.0063817324
179	0xbbd32f34	-0.006444836
180	0xbccd2c4c	-0.025045536
181	0xbcd5aa42	-0.026082162
182	0xbccd853a	-0.025087941
183	0xbcd3a6f2	-0.025836442
184	0xbcd202fc	-0.025636189
185	0xbcd75e23	-0.026290005
186	0xbcd0b4c5	-0.025476823
187	0xbd0bf4ef	-0.034169134
188	0x3d33ca42	0.04389406
189	0x3d44ed21	0.048077706
190	0xbcb9a473	-0.022661423
191	0xbd68851f	-0.05676758
192	0xbe77c715	-0.24197038
193	0xbe0a8e24	-0.13530785
194	0xbc90beb3	-0.017669057
195	0xbd7a9fc0	-0.061187506
196	0xbda3211e	-0.07965301
197	0xb8a3c1a9	-7.808518e-05
198	0x3ca8732b	0.020562729
199	0xbdedce31	-0.116115935
200	0xbd3ea622	-0.046545155
201	0xbcf89a28	-0.030346945
202	0xbcf89de8	-0.030348733
203	0xbd2a6e9b	-0.041609388
204	0xbd8b9146	-0.06814818
205	0xbccf8034	-0.025329687
206	0xbd6c4bf5	-0.057689626
207	0xbdaa7209	-0.08322532
208	0xbd20827a	-0.039186932
209	0xbcd46cd5	-0.025930801
210	0xbd0707d5	-0.032966454
211	0xbd0a72b8	-0.03380081
212	0xbd085624	-0.033285275
213	0xbd085b5c	-0.033290252
214	0xbd098469	-0.03357354
215	0xbd04b28d	-0.03239684
216	0xbd08520d	-0.033281375
217	0xbd0b5d4c	-0.03402452
218	0xbc958ead	-0.01825651
219	0xb9ffc590	-0.00048784586
220	0xbd03751b	-0.032094102
221	0xbd65d79e	-0.05611383
222	0xbd824bab	-0.06362089
223	0xbd704b47	-0.05866554
224	0xbd1faaaf	-0.038981136
225	0xbd2c105f	-0.0420078
226	0xbd097cba	-0.033566214
227	0xbc6e2c46	-0.014536923
228	0xbc66c446	-0.014084881
229	0xbd2aec25	-0.04172911
230	0xbd3ae47b	-0.045628052
231	0xbcf010a1	-0.029304804
232	0xbce7f984	-0.02831722
233	0xbce2bf1a	-0.027679015
234	0xbcf29c34	-0.0296155
235	0xbd00ea8d	-0.031473685
236	0xbd52dbaf	-0.051479038
237	0xbd83b85f	-0.0643165
238	0xbd28ca97	-0.04120883
239	0xbd092032	-0.03347797
240	0xbcdfc516	-0.027315658
241	0xbce1f562	-0.027582828
242	0xbcd96032	-0.026535127
243	0xbce2ceac	-0.02768644
244	0xbcd71811	-0.026256593
245	0xbcd6e296	-0.026231091
246	0xbcdc30d3	-0.02687875
247	0xbce87a75	-0.028378705
248	0xbd0b7e00	-0.03405571
249	0xbadb385a	-0.0016725168
250	0xbcde6baf	-0.027150957
251	0xbd2b560e	-0.041830115
252	0xbcf1ad9f	-0.029501734
253	0xbd04387f	-0.03228044
254	0xbd036ce0	-0.032086253
255	0xbcdb9bd0	-0.026807696

gru.weight_hh_l0 f4 [384, 128]
0	0x3a4e05a6	0.0007859118
1	0xbb053b5c	-0.002032957
2	0x3a48814b	0.00076486607
3	0xbb6a8993	-0.0035787567
4	0x39f85c33	0.0004737094
5	0xbb0f0dd8	-0.002182832
6	0xb9dfe9e9	-0.0004270815
7	0xb9ad95c6	-0.0003310872
8	0x3a800819	0.0009768038
9	0x3a0c2580	0.0005346164
10	0xbb886c5e	-0.004163309
11	0xba7135e6	-0.0009201452
12	0x39c8c34f	0.0003829249
13	0x3a8cef9e	0.0010752564
14	0x3ac7571a	0.0015208453
15	0xbb981882	-0.0046415934
16	0x39757487	0.0002340843
17	0x3a2c2e3c	0.0006568169
18	0xb91e089e	-0.00015071264
19	0x3a1941b6	0.00058462785
20	0xbb804095	-0.003913949
21	0xbb3973bb	-0.002829774
22	0xbba8aed6	-0.005147795
23	0xba7a1e9c	-0.00095413043
24	0xbaf26b15	-0.0018495048
25	0xb94ea59b	-0.00019707384
26	0x3aabe03a	0.0013113089
27	0x3b8c99d0	0.004290797
28	0xba4565b6	-0.000753011
29	0xba53d03d	-0.0008080041
30	0xbb14b62f	-0.0022691598
31	0xbb3e8211	-0.0029069225
32	0xbb5de2dc	-0.0033857143
33	0x3b7167bd	0.0036835514
34	0x3b02a1e5	0.0019932922
35	0x3805fc9e	3.194494e-05
36	0x3a272e00	0.0006377399
37	0xbbb2fef3	-0.005462521
38	0xba9d583b	-0.0012004444
39	0x3ad5fb20	0.0016325451
40	0xbb2780c3	-0.0025558926
41	0xbaef4b77	-0.0018256743
42	0xb9b3d71f	-0.00034301818
43	0x3aac4794	0.001314389
44	0xba6ed17d	-0.00091101957
45	0xbb8efd21	-0.0043636714
46	0x3a05ffea	0.00051116815
47	0x3b479793	0.0030455336
48	0x3996d66b	0.00028769983
49	0xb954212e	-0.00020230256
50	0xba900f5b	-0.0010990904
51	0x3a3d3f61	0.0007219222
52	0xb7554b10	-1.2713266e-05
53	0xb9659505	-0.00021894656
54	0xb7b35099	-2.1375994e-05
55	0x3a9b72aa	0.0011859734
56	0xbabfc786	-0.0014631606
57	0xb974bb72	-0.00023339482
58	0x3ad60c3f	0.0016330554
59	0xb97c1b2a	-0.00024042712
60	0xbb82b81c	-0.0039892327
61	0x3b9017ac	0.004397353
62	0x3acd19d0	0.0015647952
63	0x39295805	0.00016149886
64	0x390b0417	0.00013257597
65	0xbb3cccdc	-0.002880863
66	0xba381adf	-0.0007023047
67	0xbab84d1a	-0.0014061064
68	0xbb1b89f0	-0.002373334
69	0x3ba43081	0.005010665
70	0x397b12b0	0.00023944187
71	0xb964ac11	-0.00021807874
72	0x390ab030	0.0001322634
73	0x3b485b3b	0.0030571956
74	0x3a646936	0.00087131874
75	0xba4666d1	-0.00075684214
76	0x3926e541	0.00015916397
77	0x3b0b1022	0.0021219333
78	0x3ac9a18c	0.0015383228
79	0x3b7b8cb5	0.0038383428
80	0x3a836589	0.0010024767
81	0x3a0bdc81	0.0005335287
82	0x3a84eba7	0.0010141031
83	0xbad58701	-0.0016290845
84	0xb998e3d2	-0.0002916144
85	0x39bbfff7	0.00035858128
86	0xba5c1d34	-0.00083966856
87	0x3ab1a487	0.0013553061
88	0x39ab2622	0.00032644073
89	0x3aeb39f8	0.0017946353
90	0x3abb9f8b	0.0014314515
91	0x39314758	0.00016906613
92	0x3aa5eb45	0.0012658617
93	0xbaffb939	-0.0019510157
94	0xbb38e0f8	-0.0028210264
95	0xbbc22900	-0.0059252977
96	0xba86ae41	-0.001027532
97	0xbb777d6a	-0.0037763962
98	0xbabfac45	-0.0014623484
99	0xbaab4726	-0.0013067469
100	0xba4be80d	-0.0007778414
101	0xbb096ae7	-0.002096826
102	0xba861cbf	-0.0010231956
103	0xba61f2e7	-0.0008619264
104	0x3a533b36	0.00080578343
105	0x3ad83ea7	0.0016498164
106	0x3a67df4c	0.00088452245
107	0x3a1b17f6	0.0005916351
108	0xbb0720d0	-0.0020618923
109	0x38fec9e0	0.00012149266
110	0xb8188140	-3.6359997e-05
111	0xba6123bf	-0.00085883954
112	0x38916feb	6.934985e-05
113	0xba9f7db8	-0.0012168204
114	0xba1c6baf	-0.0005966974
115	0xba62a991	-0.0008646483
116	0x3bf016bf	0.0073269303
117	0xb9c0810e	-0.00036717247
118	0xbb02e70e	-0.0019974145
119	0xb927fa13	-0.00016019521
120	0x3aa10721	0.001228545
121	0x3a291d75	0.0006451228
122	0xba443577	-0.00074847735
123	0x3a8749f0	0.0010321718
124	0x3a7e20f6	0.00096942426
125	0xbac9657a	-0.0015365325
126	0xbaec0a19	-0.001800838
127	0xbb133221	-0.00224603
128	0xbae4fc38	-0.0017470187
129	0xbac8103b	-0.0015263626
130	0xbb848bf1	-0.0040450026
131	0xbb87819e	-0.0041353246
132	0x3bb59049	0.005540882
133	0xbc25b5ac	-0.010114115
134	0x3bb5e081	0.0055504446
135	0x3b9af019	0.004728329
136	0xbb46f93b	-0.0030360955
137	0xbbf268da	-0.007397753
138	0xbb694a5d	-0.0035597302
139	0x3b5917bd	0.0033125721
140	0x3bd7d9cc	0.0065872427
141	0x3aa1845f	0.0012322775
142	0xbbc34e71	-0.0059602787
143	0xbb9d5db4	-0.00480243
144	0x3bf6f729	0.007536788
145	0xbbcf2765	-0.006321835
146	0xba32f52a	-0.00068266934
147	0xbb4f2716	-0.003160899
148	0xbb8e8779	-0.0043496457
149	0x3becac34	0.0072226766
150	0xbbeb4496	-0.007179807
151	0x3abff8a3	0.0014646243
152	0x3b4deb06	0.0031420602
153	0xbbb610bf	-0.0055561955
154	0x3acc4be5	0.0015586583
155	0xb9ae2400	-0.00033214688
156	0x3bf44a99	0.007455182
157	0xbacc80d6	-0.0015602361
158	0x3b6c9830	0.0036101453
159	0x3aa84d8a	0.0012840491
160	0xbb18dd78	-0.0023325365
161	0x3ae5e3b7	0.0017539178
162	0x39ebe4cd	0.00044993163
163	0xbad3ca42	-0.00161583
164	0xbc227394	-0.009915251
165	0xbc426f73	-0.011867392
166	0x3bca2f02	0.0061701545
167	0xba6f4f15	-0.00091289106
168	0xbaf34cd1	-0.0018562322
169	0xbc043148	-0.00806839
170	0x3a1ace85	0.00059054076
171	0xb99a3fea	-0.0002942079
172	0x3abc3ce5	0.001436141
173	0xbb20ed34	-0.0024555447
174	0xbb921222	-0.004457728
175	0xba8730af	-0.0010314191
176	0x3b921fe0	0.004459366
177	0x3a9281fa	0.0011177652
178	0x39e2d3d7	0.00043263912
179	0xbb3bef3d	-0.0028676533
180	0xbbc03cdf	-0.0058666314
181	0xba452626	-0.0007520638
182	0x3c02b454	0.007977564
183	0xbbb3f469	-0.0054917824
184	0x3b86a91c	0.004109515
185	0xbc8a92ee	-0.016915765
186	0xb912ed59	-0.00014012064
187	0xbb9cdde7	-0.004787195
188	0xbb203ad5	-0.002444913
189	0x3b3d825b	0.002891681
190	0x3bb2de0e	0.0054586
191	0xbb557def	-0.0032576283
192	0xbb36488a	-0.0027814233
193	0xbb38b026	-0.0028181165
194	0x3b867984	0.0041038413
195	0xb95f2314	-0.00021280005
196	0x3b2164e3	0.0024626784
197	0x3b5e9422	0.0033962806
198	0x3c05a035	0.008155872
199	0x38f466e2	0.0001165399
200	0x3b1cebe0	0.0023944303
201	0x3b188b97	0.0023276561
202	0x3b2d2c86	0.0026424243
203	0xbad990c1	-0.0016598926
204	0x3a888b16	0.0010417427
205	0xbbaea2f0	-0.0053294823
206	0x3c0db475	0.008648981
207	0x3b1c6af3	0.0023867458
208	0xbbe5cb19	-0.0070127365
209	0xb9fefee7	-0.00048636572
210	0xbb53f16f	-0.003233995
211	0xbb415b3d	-0.0029503845
212	0x3bad5205	0.0052893185
213	0xbbfc8b4f	-0.0077070366
214	0xbbc63a95	-0.006049464
215	0x3c03e228	0.008049525
216	0x3ba603e2	0.005066381
217	0x3b088869	0.002083326
218	0xbb81eb03	-0.003964783
219	0x3a801abd	0.0009773594
220	0xbba736d6	-0.0051029725
221	0x3b0719d2	0.0020614755
222	0xb5c0b553	-1.4357887e-06
223	0xbc3b482b	-0.01143078
224	0x3bea216d	0.007145098
225	0xba8e31c9	-0.0010848577
226	0x3a936767	0.0011246026
227	0x3ae44ffe	0.0017418859
228	0xbabf32b1	-0.0014587251
229	0xbb8ed524	-0.0043589044
230	0xbb33a920	-0.0027414039
231	0x3b217e52	0.0024641943
232	0x3a1c8f46	0.0005972277
233	0x3bc2112e	0.005922458
234	0xbb097425	-0.0020973769
235	0x3c5b85fb	0.013398643
236	0xbbcdcef3	-0.006280774
237	0x39696c2c	0.00022260909
238	0xbc0b979e	-0.008520035
239	0x3b778dc6	0.0037773713
240	0xb91a8fbf	-0.00014740134
241	0xbbae0e3e	-0.0053117564
242	0x3c3a5138	0.011371903
243	0x3aed34cd	0.0018097401
244	0x3b662295	0.0035115827
245	0xbb3a74ab	-0.0028450887
246	0xbbc14749	-0.0058983904
247	0xba8045b2	-0.0009786396
248	0x3b9a9e3a	0.004718569
249	0xbb8dfd01	-0.004333139
250	0xbc297488	-0.010342725
251	0xbad0f9a4	-0.0015943539
252	0x3abb79e4	0.0014303294
253	0xbb0cccc8	-0.0021484364
254	0xb9adc64c	-0.00033144874
255	0x3bf4c3ba	0.0074696215

gru.bias_ih_l0 f4 [384]
0	0xbbcc03c6	-0.0062260358
1	0xbd947b2d	-0.072500564
2	0x3c55ac7b	0.013041611
3	0x3df639a3	0.12022712
4	0x3cd2e6f2	0.025744889
5	0x3c70abf9	0.014689439
6	0x3c0676a5	0.008206998
7	0xbc4026a0	-0.011727959
8	0xbc9ac3bc	-0.018892162
9	0x3e1ada39	0.15122308
10	0xbcbf867d	-0.023379559
11	0x3d0866be	0.033301108
12	0x3ce3558b	0.027750751
13	0xbbd4200b	-0.0064735464
14	0x3dd23cf5	0.10265533
15	0x3b9d3528	0.0047975965
16	0xbcdeef31	-0.027213665
17	0x3cf1c0b7	0.029510839
18	0x3b2c5c83	0.0026300258
19	0xbd810419	-0.0629961
20	0x3da1be43	0.07897618
21	0x3c00b8dc	0.007856574
22	0x3df37c12	0.11888899
23	0xbcec215e	-0.028824504
24	0xbd251752	-0.040305443
25	0x3c4ddfda	0.012565577
26	0xbc694053	-0.0142365275
27	0x3cc299f2	0.023755047
28	0x3cb7449c	0.022371583
29	0x3b866b43	0.004102142
30	0xbd73bb58	-0.059504837
31	0x3c45feca	0.012084672
32	0x3d54fb64	0.051997557
33	0x3da8b1d3	0.08237042
34	0x3d112301	0.035433773
35	0xbb91e7a9	-0.004452665
36	0xbca1487e	-0.019687887
37	0x3dec7d6b	0.11547359
38	0x3cf813f1	0.030282946
39	0xbd7b3fec	-0.061340258
40	0x3c50cce2	0.01274416
41	0x3da56366	0.08075599
42	0xbca59aa5	-0.020215342
43	0xbc8d8b22	-0.017278258
44	0xbba92e27	-0.0051629725
45	0x3c8906c4	0.016726859
46	0x3d3d3f4b	0.04620294
47	0xbcf3536b	-0.029702863
48	0x3d969065	0.0735176
49	0xbc927006	-0.017875683
50	0xbc36cf64	-0.011157844
51	0x3bb26312	0.005443939
52	0xbcc998ad	-0.024608934
53	0xbd7b8311	-0.06140429
54	0xbd3a45df	-0.04547679
55	0x3b377825	0.0027995196
56	0xbdb44113	-0.088014744
57	0xbcafddde	-0.0214681
58	0x3d2b19d9	0.041772697
59	0x3c558b09	0.013033637
60	0x3b44cf25	0.0030030694
61	0x3d8a1c56	0.06743686
62	0x3c8544dc	0.016268186
63	0x3d828b33	0.063742064
64	0x3c958b16	0.018254798
65	0x3c1cf6b0	0.009580299
66	0xbd10325d	-0.03520428
67	0xbccc1b92	-0.02491549
68	0xbd4efba9	-0.05053297
69	0x3d9c8e69	0.0764435
70	0x3cd1bf5d	0.025603944
71	0xbc868908	-0.016422763
72	0xbbd047c0	-0.0063562095
73	0x3ba37d6a	0.0049893158
74	0x3d8325bb	0.06403681
75	0x3c570dc6	0.013125842
76	0x3c79cc5d	0.015246478
77	0x3d0731fb	0.03300665
78	0x3ccf8e88	0.025336519
79	0xbb755ab5	-0.0037438099
80	0xbd598148	-0.053101808
81	0x3d7741c0	0.06036544
82	0xbcde7abf	-0.02715814
83	0xbd069bd4	-0.032863453
84	0xbca4e6e4	-0.020129628
85	0x3c1d1867	0.0095883375
86	0x3cb7d0fd	0.02243852
87	0x3c5f7d24	0.013640676
88	0x3d271ca4	0.0407988
89	0xbb8af718	-0.0042408817
90	0x3c35104a	0.011051247
91	0xbcb8a67f	-0.022540329
92	0x3d2ddd56	0.04244741
93	0x3ceac2b9	0.028657304
94	0x3ba0646c	0.0048947837
95	0x3e6f2c57	0.23356758
96	0xbc81fe2f	-0.015868274
97	0x3d60f586	0.05492165
98	0xbcc7bb17	-0.024381204
99	0xba3aaa32	-0.0007120698
100	0xbc96a2de	-0.018388208
101	0x3d50eed5	0.051009018
102	0x3b8fdd8f	0.0043904255
103	0xbce65f0b	-0.028121492
104	0xbd585f04	-0.05282499
105	0x3c64d121	0.013965876
106	0xbdbca870	-0.092118144
107	0x3d6e1a47	0.05813053
108	0xbbd81b4f	-0.0065950523
109	0xba221505	-0.0006182942
110	0x3d18d5c0	0.037313223
111	0xbcfdf93e	-0.031002637
112	0xbbb456ab	-0.0055034957
113	0xbd2cf2c2	-0.0422237
114	0xbb89bb79	-0.0042032567
115	0x3d0166b0	0.03159207
116	0xba94bbc2	-0.001134746
117	0xbd19e557	-0.03757223
118	0x3cfd30ed	0.030907119
119	0x3d04f042	0.03245569
120	0xbd5aa652	-0.05338127
121	0xbcf73e55	-0.03018109
122	0xbcf987b9	-0.030460225
123	0x3c9ac989	0.018894928
124	0x3cca1a9a	0.024670888
125	0xbc5c099d	-0.013430026
126	0x3d43aba9	0.04777113
127	0x3ce40c74	0.02783797
128	0x3d00dd34	0.031460956
129	0x3d73b224	0.05949606
130	0x3d8657f5	0.06559745
131	0xbc07761b	-0.008267905
132	0x3da095a2	0.0784104
133	0x3c4e959a	0.01260891
134	0x3c0d79f5	0.008635034
135	0x3d0a20c8	0.03372267
136	0xb7c47ac5	-2.342219e-05
137	0x3d24af71	0.040206376
138	0x3d0d11b1	0.0344407
139	0x3d620f80	0.055190563
140	0x3b3fe3e2	0.0029280116
141	0xbc2333a3	-0.009961042
142	0x3d1be6fe	0.03806209
143	0x3b5a0b84	0.0033271024
144	0xbe3a5aba	-0.18198672
145	0x3dcf6ae8	0.101278126
146	0x3ac8ad92	0.0015310517
147	0x3d20ed0a	0.039288558
148	0xbd8638ba	-0.065537885
149	0xbc242ff9	-0.010021203
150	0xbd5df0ae	-0.05418461
151	0x3ae3c8fe	0.0017378626
152	0x3d29eeb4	0.04148741
153	0x3de19d97	0.11016386
154	0x3d2554de	0.04036414
155	0xbc78b1d3	-0.015179115
156	0x3d9c6940	0.07637262
157	0x3bf12552	0.0073591853
158	0x3d8f64bf	0.07001638
159	0x3d60670b	0.05478577
160	0xbd361cd5	-0.04446109
161	0x3b174f77	0.0023088136
162	0xbd43c8e6	-0.047799014
163	0x39e82d09	0.00044284042
164	0x3ded3f7a	0.11584373
165	0xbd71122c	-0.05885522
166	0x3b7e4cb0	0.0038803034
167	0xba8eaf88	-0.0010886053
168	0xba02a3e0	-0.0004983526
169	0xbbcc16c3	-0.0062282993
170	0xbd32c2da	-0.043642856
171	0x3c9a0e43	0.018805629
172	0xbc07edad	-0.008296412
173	0x3cb223df	0.02174562
174	0x3daa24b4	0.08307782
175	0xbb85004a	-0.0040588723
176	0x3c16a943	0.009195629
177	0x3cc43e98	0.023955628
178	0x3c5eba36	0.013594201
179	0x3cbb8cfc	0.022894375
180	0x3d5e5ea9	0.054289494
181	0x3bdbd3dc	0.006708605
182	0x3dc0b433	0.0940937
183	0x3d238ec9	0.039931092
184	0x3d5b7bc3	0.053584825
185	0x3db958b5	0.09050123
186	0xba164eeb	-0.00057338056
187	0x3d200d67	0.03907528
188	0x3b4fe7e2	0.0031723906
189	0xbcc7271d	-0.024310643
190	0x3d5dede5	0.054181952
191	0xbc33d83f	-0.01097685
192	0x3c7b89d6	0.015352687
193	0x3cbbb7ec	0.02291485
194	0x3d099492	0.033588953
195	0x3cf14fb5	0.029456953
196	0x3d5c976b	0.05385534
197	0xbd576de8	-0.05259505
198	0x3e16c806	0.1472474
199	0xbc0beded	-0.008540613
200	0xb9114bf4	-0.00013856572
201	0x3b4c8dba	0.0031212405
202	0x3b7f9e29	0.0039004183
203	0xbc552e4d	-0.013011527
204	0xbb50cace	-0.0031859162
205	0x3b909e28	0.004413385
206	0x3dbb3fe6	0.09143047
207	0x3c73dc3e	0.014884053
208	0x3ddec178	0.10876745
209	0xbcf26694	-0.029589929
210	0x3d1cb024	0.03825392
211	0x3c03ca78	0.008043878
212	0x3d19008c	0.037354037
213	0x3d8ff406	0.07028966
214	0xbc13bfa7	-0.009017861
215	0x3e1dff56	0.15429434
216	0x3b7724a7	0.0037711055
217	0xba0e8b47	-0.0005437624
218	0x3d542186	0.051789783
219	0xbd0fac56	-0.03507646
220	0x3bdb2255	0.0066874423
221	0x3cb3534e	0.021890309
222	0xbc222c7d	-0.009898302
223	0xbdb048c6	-0.086076304
224	0x3dc15023	0.09439113
225	0xbce297f5	-0.02766035
226	0x3ccb94bd	0.024851197
227	0x3d2cfa34	0.0422308
228	0xbb3585d5	-0.0027698178
229	0x3d1028f2	0.0351953
230	0x3c3f21e9	0.0116658
231	0xbda90e48	-0.08254677
232	0x3dbfc6f9	0.09364123
233	0x3d50bd3b	0.050961714
234	0x3cbfa464	0.023393817
235	0x3de50a6d	0.11183629
236	0x3c510401	0.012757302
237	0xba3c3d6f	-0.0007180785
238	0x3da6b5d1	0.081401475
239	0x3c7a20db	0.015266622
240	0x3a8ab8aa	0.0010583599
241	0xbbdf9109	-0.0068227095
242	0x3e066e21	0.13127948
243	0xbb4f9e69	-0.0031680113
244	0xbca3549a	-0.019937802
245	0x3d21e3a8	0.03952375
246	0xbc1cee0d	-0.00957824
247	0xbcc0a8fe	-0.023518082
248	0x3c444a05	0.011980538
249	0x3cc1b408	0.023645416
250	0x3dd8d57e	0.105875954
251	0x3c1c79be	0.00955051
252	0x3b9e4a22	0.0048306147
253	0x3d1ff917	0.03905591
254	0xbc85706f	-0.016288964
255	0x3d2e87ed	0.042610098

gru.bias_hh_l0 f4 [384]
0	0xbd41a0df	-0.04727256
1	0xbd1fde35	-0.039030273
2	0xbd0dfc49	-0.034664426
3	0x3da76427	0.081733994
4	0xbd31e601	-0.04343224
5	0x3cf3ae07	0.029746069
6	0xbbd07a8e	-0.006362266
7	0x3d3ed57c	0.046590313
8	0xbc99ed35	-0.018789867
9	0x3e1410e8	0.14459574
10	0xbc527b4d	-0.01284678
11	0x3d7c615c	0.061616287
12	0xbbb05398	-0.005381059
13	0x3ce299c7	0.027661217
14	0x3dcad350	0.09903586
15	0x3d5388f2	0.051644273
16	0xbdc8dae8	-0.09807378
17	0xbc8c86d6	-0.017154139
18	0xbaa9502f	-0.0012917573
19	0x3c13d54a	0.00902302
20	0x3d569c8b	0.052395385
21	0x3d29324f	0.041307744
22	0x3df20acc	0.118184656
23	0xbd1d0d23	-0.038342606
24	0xbc99b2c6	-0.018762004
25	0xbc9a9311	-0.018868955
26	0xbb877754	-0.004134098
27	0x3d7ca61f	0.061681863
28	0x3d88bb69	0.06676371
29	0x3b5d9281	0.0033809247
30	0x3d34ad25	0.044110436
31	0xbdcf49d8	-0.101215065
32	0x3d2bebef	0.04197305
33	0x3ce537ac	0.027980648
34	0x3d133be9	0.035945807
35	0x3c0fc472	0.008774864
36	0xbca4a41d	-0.020097787
37	0x3dc7f205	0.097629584
38	0x3cbb4e13	0.022864377
39	0xbcf793ec	-0.030221902
40	0x3b784e75	0.003788856
41	0x3cc7aeb3	0.024375295
42	0xbcb35e57	-0.02189557
43	0xbd49ab4f	-0.04923564
44	0x3cb82982	0.02248073
45	0x3c7fae9e	0.015605597
46	0xbd32c0fd	-0.04364108
47	0x3bfb7b89	0.0076746386
48	0x3d93fc3e	0.07225846
49	0x3c90355e	0.017603572
50	0x3c3ad869	0.011404135
51	0x3bd5c975	0.0065242597
52	0x3afdd695	0.0019366319
53	0x3d4b51d4	0.049638584
54	0xbd6ca311	-0.0577727
55	0xbc4dfb43	-0.0125721125
56	0xbcc02575	-0.02345536
57	0x3d0565cf	0.032567795
58	0x3d086f79	0.033309434
59	0x3cd3a4f3	0.02583549
60	0x3c040a1e	0.008059053
61	0x3d81736c	0.06320843
62	0xbcf72012	-0.03016666
63	0x3d5dfb8e	0.05419498
64	0xbcce0a80	-0.025151491
65	0x3c572868	0.013132192
66	0x3c765d2a	0.0150368605
67	0xbd7ce079	-0.06173751
68	0xbbe770b5	-0.0070629963
69	0x3d248fc6	0.040176176
70	0xbd8f4acb	-0.069966875
71	0x3bd9ec70	0.0066505
72	0xbc0b81e8	-0.008514859
73	0x3c412792	0.011789219
74	0x3d22681e	0.039650075
75	0x3c537975	0.012907376
76	0x3c434cba	0.0119201485
77	0x3d393143	0.045212995
78	0x3b99ac87	0.0046897563
79	0x3c5f7539	0.013638788
80	0xbd79eac3	-0.0610149
81	0xbda8e300	-0.08246422
82	0xbcd6e558	-0.026232406
83	0xbd6b6d0d	-0.057477046
84	0xbc8167e5	-0.015796611
85	0xbc9ceaea	-0.019154985
86	0x3d398e22	0.045301564
87	0xbd8a3498	-0.06748313
88	0xbd1a0118	-0.0375987
89	0xbb7f436c	-0.0038950099
90	0xbce08431	-0.027406784
91	0xbd65a7e5	-0.05606832
92	0x3d7c0973	0.06153245
93	0x3b816750	0.0039490834
94	0x3c2fec2c	0.01073746
95	0x3e822788	0.25420785
96	0xbc41c51f	-0.0118267825
97	0x3d8c288b	0.068436705
98	0x3d078251	0.033083264
99	0xbb1221bc	-0.002229794
100	0xbbe7385b	-0.0070562786
101	0x3cc76d5b	0.024344137
102	0x3be4b0aa	0.006979068
103	0x3d763e42	0.060117967
104	0x3c323053	0.010875779
105	0x3c377d68	0.011199333
106	0xbc167da1	-0.009185226
107	0x3d09b4f3	0.033619832
108	0xbc994d0b	-0.018713495
109	0x3ad409e4	0.0016177264
110	0xbd686eea	-0.0567464
111	0xbbe2dd18	-0.006923329
112	0xba700f95	-0.00091575953
113	0x3d440d12	0.047864027
114	0x3d611f1d	0.054961313
115	0xbcbe399b	-0.023220828
116	0x3c94f24e	0.018181946
117	0xbce0cadb	-0.027440479
118	0x3ccb4e3a	0.024817575
119	0x3c67e010	0.014152542
120	0x3ce8156b	0.028330525
121	0xbd06b421	-0.032886628
122	0x3d742fe9	0.059616003
123	0xbcb33452	-0.021875534
124	0x3c39caaf	0.011339827
125	0xbc83a5d3	-0.016070282
126	0xbd6b96a3	-0.057516705
127	0x3d806c89	0.062707014
128	0x3ce59047	0.028022898
129	0x3d0d6058	0.03451571
130	0x3da2e91a	0.07954617
131	0xbca577ed	-0.020198787
132	0x3d99b52d	0.0750526
133	0xbd0aa276	-0.03384634
134	0x3da38d78	0.079859674
135	0x3c0a3f9c	0.008438017
136	0x3bfb0df8	0.0076615773
137	0x3d0af51c	0.03392516
138	0x3c98e0de	0.018661913
139	0x3c513710	0.012769476
140	0x3cbd0ee7	0.023078395
141	0xbc1d7f44	-0.009612862
142	0x3d45712c	0.048203632
143	0xba63b990	-0.0008687014
144	0xbe3ddebe	-0.18542
145	0x3e048861	0.1294265
146	0x3accfde4	0.001563963
147	0xbc005854	-0.007833559
148	0xbd8440f3	-0.064577006
149	0xbc1c382a	-0.009534875
150	0xbd3353ba	-0.04378102
151	0x3b99157f	0.004671752
152	0x3d2c828a	0.04211668
153	0x3ddfc8f0	0.10926998
154	0x3d4079b2	0.046991058
155	0xbc726d65	-0.0147965895
156	0x3dd3dc63	0.1034477
157	0x3bf11f56	0.007358472
158	0x3ce1baa7	0.027554823
159	0x3da59c09	0.08086402
160	0xbd4253b9	-0.047443125
161	0x3b071161	0.0020609724
162	0xbd4cb26b	-0.04997484
163	0x39e7dfd6	0.00044226524
164	0x3dcb5550	0.099283814
165	0xbd14193b	-0.036156874
166	0x3b4d2881	0.003130466
167	0x3d552556	0.05203756
168	0x3bc9927e	0.0061514964
169	0x3d2f2e44	0.04276873
170	0xbd32ea3f	-0.043680426
171	0x3ccd97ec	0.025096856
172	0xbb99d474	-0.004694516
173	0x3c62cf73	0.013843405
174	0x3d84dfaf	0.06487977
175	0xbcbeef4a	-0.023307461
176	0x3c8011e7	0.015633537
177	0x3ce4a332	0.027909849
178	0x3c465e71	0.0121074775
179	0x3b0b4003	0.002124787
180	0x3d2bc675	0.04193731
181	0x3c26830b	0.010163079
182	0x3df9b78e	0.121932134
183	0x3d712ca9	0.058880482
184	0x3d55a3b2	0.052158065
185	0x3e20b345	0.15693386
186	0x3b793a3b	0.0038029093
187	0x3d56f425	0.052478928
188	0xbb04b697	-0.0020250434
189	0xbccc6332	-0.024949644
190	0x3de015c0	0.109416485
191	0xbca41cb1	-0.020033212
192	0x3c6d3ccd	0.014479828
193	0x3c994a6f	0.01871225
194	0x3cc08e94	0.023505487
195	0x3c29c67e	0.010362266
196	0x3d51e3a1	0.051242474
197	0xbc7249b4	-0.01478808
198	0x3d937731	0.07200468
199	0xbc093447	-0.00837428
200	0x38844280	6.306637e-05
201	0xba3b50f2	-0.00071455457
202	0x3c4be998	0.01244583
203	0xbc5018e0	-0.012701243
204	0xbb51d6f9	-0.0032019003
205	0x3c328bf2	0.010897623
206	0x3d8124fc	0.06305882
207	0x3ce093d4	0.02741424
208	0x3dd29bfa	0.102836564
209	0x3cf22aba	0.02956139
210	0x3d2a9df1	0.04165453
211	0x3bcee637	0.006314065
212	0x3cfe7c24	0.031065054
213	0x3dbff6c4	0.09373239
214	0xbc5e0748	-0.013551541
215	0x3e23caba	0.15995303
216	0x3c15220d	0.009102357
217	0x3aea25ff	0.0017864107
218	0x3d80986a	0.06279071
219	0xbcfc3d43	-0.03079093
220	0x3bcfcec7	0.0063417885
221	0x3cb21687	0.021739257
222	0xbc2fdbce	-0.010733558
223	0xbdb52fda	-0.088470176
224	0x3de9ce79	0.11416335
225	0xbccc7190	-0.024956495
226	0x3ca986be	0.020694133
227	0x3d20bf8a	0.039245166
228	0xbbb466ed	-0.005505434
229	0x3d2fcc6a	0.042919554
230	0x3b9bc608	0.004753832
231	0xbd88aab4	-0.06673184
232	0x3d3d8099	0.04626522
233	0x3d5301b2	0.05151529
234	0xbc3f6e77	-0.011684052
235	0x3df3dcbd	0.11907337
236	0x3c291a74	0.010321248
237	0xba35d941	-0.00069369754
238	0x3d61b026	0.05509963
239	0x3c30d7da	0.0107936505
240	0x3a8ab8aa	0.0010583599
241	0x3c6f31d9	0.014599287
242	0x3dd7ec1a	0.1054308
243	0xbb6ca46e	-0.003610875
244	0xbc5c7366	-0.0134552475
245	0x3d255360	0.040362716
246	0xbd105d82	-0.035245426
247	0xbc94c40c	-0.018159889
248	0xbc7a79cf	-0.0152878305
249	0x3cdf9030	0.027290434
250	0x3e13a50d	0.1441843
251	0x3bc7dbf1	0.006099217
252	0x3b9e76bb	0.004835931
253	0x3d101307	0.035174396
254	0x3cb255da	0.021769453
255	0x3d3c3970	0.045953214

gru.weight_ih_l1 f4 [384, 128]
0	0xba64745e	-0.000871485
1	0xbc8c7b3f	-0.017148612
2	0xbafd2ff6	-0.0019316662
3	0xbc8363e6	-0.016038846
4	0x3c8e68d3	0.017383968
5	0xbccb9491	-0.024851115
6	0xbb66c23b	-0.0035210985
7	0x3c138469	0.009003737
8	0xbb69d066	-0.0035677194
9	0xbc59091b	-0.0132468
10	0xbc59f4d8	-0.013303004
11	0x3b9945d0	0.0046775118
12	0x3cb22e5d	0.021750623
13	0x3bb926b1	0.0056503643
14	0xbc260fd9	-0.010135614
15	0xbc6fada9	-0.014628806
16	0x3c3e9edf	0.0116345575
17	0xbb918091	-0.004440375
18	0xbab8f9a6	-0.0014112487
19	0xb9e1f95c	-0.0004310113
20	0xbc7d4852	-0.015459137
21	0xbb360a73	-0.0027777224
22	0xbca45d68	-0.02006407
23	0xbae2dd79	-0.0017308436
24	0xbba7c903	-0.005120398
25	0xbc7ea9e6	-0.015543437
26	0x3c8c0dcd	0.017096424
27	0x3be9073e	0.007111459
28	0xbac1aaf6	-0.0014775682
29	0xbb86bc78	-0.0041118227
30	0xbb5f00e8	-0.003402764
31	0xbc06a128	-0.008217134
32	0xbb950c8a	-0.004548614
33	0x3c3c8b71	0.011507855
34	0x3aa1f570	0.0012356471
35	0xbab599e3	-0.0013855066
36	0xbbb8a455	-0.0056348243
37	0xbcb16c56	-0.021658104
38	0x3c3d89d6	0.011568507
39	0x3bbbcc3c	0.0057311337
40	0xbbcdc5ba	-0.0062796744
41	0xbcc6b811	-0.024257692
42	0x3af45a78	0.0018642684
43	0x3b61df49	0.0034465364
44	0x3aa7a58e	0.0012790428
45	0xbc3acadd	-0.011400905
46	0xbbb2a766	-0.0054520844
47	0x3be8b8f4	0.0071021263
48	0x3c360ed2	0.011111932
49	0xbae9c79a	-0.0017835975
50	0xbbddde4f	-0.006770886
51	0x3aa59a9b	0.0012634577
52	0xbc93207b	-0.017959824
53	0xbc8ab3cd	-0.016931439
54	0x3ba6e140	0.00509277
55	0xbb61aa24	-0.0034433687
56	0xbbc2d699	-0.005945992
57	0xbb87a124	-0.0041390825
58	0x3b6dc159	0.0036278574
59	0xbc32ab51	-0.010905103
60	0xbc25b713	-0.010114449
61	0x3c33a19b	0.010963823
62	0x3c77137a	0.015080327
63	0xbb94c56d	-0.0045401365
64	0xbb2819ca	-0.0025650137
65	0xbc74c4e0	-0.014939517
66	0x3c2930c6	0.01032657
67	0xbbd16ebf	-0.006391376
68	0xbba05206	-0.0048925905
69	0x3c1573ac	0.009121817
70	0x3bc6ed2f	0.006070755
71	0x397b1db7	0.00023948295
72	0x3c49f8af	0.012327357
73	0x3bb5ba15	0.0055458643
74	0x3c867cfe	0.016417023
75	0xbb421e60	-0.0029620156
76	0x3b0f04d4	0.0021822946
77	0x3b12d145	0.0022402566
78	0x3cbadc85	0.02281023
79	0x3c5ab33f	0.0133484
80	0xbb11805b	-0.002220175
81	0xbc572af2	-0.013132798
82	0xbbc8dc11	-0.0061297496
83	0xbcc53eb1	-0.024077745
84	0x3c31b7a4	0.010847006
85	0xbc27c63d	-0.010240135
86	0xbcc1bccf	-0.023649601
87	0x3c40b789	0.011762508
88	0x3c4f38eb	0.012647848
89	0x3c1239d2	0.008924918
90	0x3ba36dee	0.00498747
91	0x3c05b445	0.008160655
92	0xbbd91cbb	-0.0066257394
93	0xbb7c244c	-0.0038473783
94	0xbbaed5cd	-0.0053355456
95	0xbc9d3d18	-0.01919417
96	0x382b03f2	4.077325e-05
97	0xbc021418	-0.007939361
98	0xbb1cf036	-0.0023946888
99	0xbab0336e	-0.0013443062
100	0xbbec3754	-0.007208744
101	0xbc6b4049	-0.0143585885
102	0xbc2a0164	-0.010376308
103	0xbb1fac1f	-0.0024364067
104	0x3c827f52	0.015929852
105	0x3c804cf4	0.015661694
106	0x39e92422	0.00044468144
107	0x3c51bcbd	0.012801346
108	0xbcc91bff	-0.024549482
109	0xb980f5ac	-0.00024597102
110	0xbbd066ff	-0.0063599343
111	0x3bf290fb	0.007402537
112	0x3a4360b8	0.0007453072
113	0xbc95828b	-0.018250724
114	0x38ca6342	9.650599e-05
115	0x398608cb	0.00025565023
116	0x3cc357e5	0.023845622
117	0xbb277e39	-0.0025557412
118	0xbcd161d0	-0.025559336
119	0x3b5bd3bf	0.0033542959
120	0x3c032757	0.008004985
121	0xbbb4b32c	-0.005514523
122	0xbc6ec749	-0.0145738805
123	0xb9df1f83	-0.00042557353
124	0x3bb0a12c	0.005390307
125	0xbc78ec33	-0.015193033
126	0xbc84b994	-0.016201772
127	0xbb3c3148	-0.0028715897
128	0xbb0df773	-0.0021662384
129	0x3b61e918	0.003447121
130	0xbaef47bf	-0.0018255635
131	0x3bb50af9	0.0055249897
132	0xba813bd5	-0.000985975
133	0x3b767ea2	0.00376121
134	0x3b36e320	0.0027906373
135	0x3bbbfcb2	0.0057369107
136	0xbb72c3c4	-0.0037042955
137	0xba1c36e6	-0.0005959108
138	0x3bc1a375	0.005909378
139	0x3a2defae	0.00066351413
140	0xbac00701	-0.0014650525
141	0xbb41d24c	-0.002957481
142	0xbb22180c	-0.0024733571
143	0x3baf294f	0.0053455005
144	0xbc648700	-0.013948202
145	0xbb537d39	-0.0032270683
146	0xbac412fd	-0.0014959272
147	0xbb864204	-0.004097225
148	0x3bbb1403	0.0057091727
149	0x3b06a57f	0.002054542
150	0x3c3080d9	0.010772907
151	0x3b5f5eab	0.0034083526
152	0x3a54188b	0.00080908154
153	0xb99242ad	-0.00027896967
154	0xbbe57548	-0.0070025064
155	0xbb64b0bb	-0.0034895379
156	0x3b9c2aa5	0.004765826
157	0x3a7163e2	0.0009208304
158	0x3be9c424	0.0071339775
159	0x3bd450b5	0.0064793476
160	0x3a977948	0.001155653
161	0x3a64c8a2	0.00087274064
162	0xb81171a2	-3.4676523e-05
163	0xbaf84f3b	-0.0018944511
164	0xbae2d060	-0.0017304532
165	0x3c25ae56	0.010112366
166	0x3b254d0e	0.002522293
167	0xbac77903	-0.001521856
168	0x3b0b37db	0.002124301
169	0x3b8bdebb	0.004268495
170	0xb999ec5a	-0.0002935853
171	0xbaf029e4	-0.0018323031
172	0x3b32baa9	0.0027271903
173	0x3b9414e5	0.0045190924
174	0xbb791fde	-0.003801338
175	0xbbe64642	-0.0070274184
176	0x3afb8b9f	0.0019191391
177	0x3aeea769	0.0018207851
178	0x3ba413d6	0.0050072474
179	0xbb5853f2	-0.003300902
180	0x3b906607	0.004406694
181	0x3c315de7	0.010825611
182	0x3afa325f	0.0019088498
183	0xbb886b9e	-0.0041632196
184	0x3b8f7f42	0.004379184
185	0x3aaa82b0	0.0013008919
186	0xbb2d0225	-0.0026398983
187	0xbbb1f2ea	-0.005430569
188	0x3b619680	0.003442198
189	0xbbf0825e	-0.0073397597
190	0xbba374c0	-0.004988283
191	0xbaf09f3a	-0.0018358
192	0xbaa86c03	-0.0012849573
193	0x3c11af64	0.008891914
194	0xba851c75	-0.0010155576
195	0x3ac582a7	0.0015068845
196	0x3ac5ca7f	0.0015090256
197	0xbb8446b3	-0.0040367483
198	0xb88a1448	-6.5841305e-05
199	0xb9eca14b	-0.000451336
200	0xbab1962e	-0.0013548785
201	0xbb1a9c90	-0.0023591854
202	0xbb61a9f3	-0.0034433573
203	0x3b06476e	0.0020489353
204	0xbac8d885	-0.0015323317
205	0xbb0ce0e9	-0.0021496362
206	0xbbc350bd	-0.0059605525
207	0xbbb7657b	-0.005596814
208	0xbaf85578	-0.001894637
209	0x3c17c99b	0.009264375
210	0xbaf91cfd	-0.0019005832
211	0x3b7f99e3	0.0039001636
212	0x3a6413d9	0.00087004673
213	0xbb078cb4	-0.002068323
214	0xbc0acf40	-0.008472264
215	0xbae1d9f5	-0.0017231094
216	0x3b48322a	0.0030547478
217	0xba969043	-0.0011487085
218	0xbb3cd2fa	-0.0028812275
219	0xba06a651	-0.00051364774
220	0xbbeec89b	-0.0072870976
221	0x394c9d93	0.00019513657
222	0x39c5c2a5	0.0003771979
223	0x3c0653f2	0.008198725
224	0xbaa4684e	-0.0012543292
225	0x3b7dc2c4	0.0038720826
226	0x3b405a84	0.0029350827
227	0xb752f9d4	-1.2575143e-05
228	0x38e7d45a	0.00011054492
229	0x39c23fcb	0.00037050093
230	0xba5d8ad9	-0.0008451171
231	0x3bdbe059	0.006710094
232	0xbc02bcbc	-0.007979568
233	0xbac8dade	-0.0015324017
234	0xbab2dd7e	-0.0013646332
235	0xbb59a3c6	-0.003320919
236	0xbbac0593	-0.005249688
237	0xbab2db95	-0.0013645763
238	0xbb209b31	-0.0024506564
239	0xbb21853f	-0.0024646071
240	0x3a0fa189	0.00054790877
241	0xbade786f	-0.0016973148
242	0xbb4938da	-0.0030704052
243	0x3b2c0e27	0.0026253553
244	0xbc456922	-0.012048991
245	0xbb0a9376	-0.0021145022
246	0x3b4839ce	0.0030552032
247	0xbb1567a1	-0.0022797363
248	0x3ac827fc	0.0015270705
249	0xbb6e11d9	-0.0036326556
250	0x3bb418e9	0.0054961336
251	0xbade6fd4	-0.0016970583
252	0x3a9622f5	0.001145451
253	0x3bc4b33b	0.0060028112
254	0x3bab5699	0.005228829
255	0x3bce06a4	0.0062874127

gru.weight_hh_l1 f4 [384, 128]
0	0x3c069611	0.00821449
1	0x3c267dea	0.010161856
2	0x3b7ac055	0.0038261611
3	0xbbf17154	-0.007368246
4	0x3b9a47f8	0.0047082864
5	0x3cb5c96e	0.022190776
6	0x3cced578	0.025248274
7	0xbc0e18b4	-0.008672882
8	0x3bc20691	0.005921193
9	0xbb83daa6	-0.0040238677
10	0xbc002c85	-0.007823114
11	0x3bdbc655	0.0067069926
12	0xbccd44bd	-0.025057191
13	0xbc316990	-0.010828391
14	0x3c450f64	0.012027595
15	0x3c405023	0.011737856
16	0xb9b6f0e4	-0.00034893223
17	0xbc49a080	-0.012306333
18	0x3b894859	0.0041895327
19	0xbc8420b8	-0.016128883
20	0xbca45753	-0.02006117
21	0xb97d8a64	-0.00024179515
22	0x3c675cd8	0.014121257
23	0xbc33d71e	-0.010976581
24	0x3ca8a479	0.02058624
25	0xbbae3c5a	-0.005317253
26	0xbb4fb7e2	-0.0031695296
27	0x3c4d4c4a	0.012530396
28	0x3c1d00cf	0.009582712
29	0xbc292252	-0.010323124
30	0xbc447966	-0.011991834
31	0x3c2654c5	0.010152047
32	0x3b9e6b91	0.0048346003
33	0xbc473296	-0.012158057
34	0xba4b3d4d	-0.000775297
35	0x3bb70d4f	0.0055863033
36	0x3b5b554f	0.0033467596
37	0x3b486f25	0.0030583825
38	0xbcbc8d7e	-0.023016687
39	0xbc1e00b8	-0.009643726
40	0x3bf83265	0.007574367
41	0x3c929273	0.017892098
42	0x3b9183d8	0.004440766
43	0xbc1f9210	-0.009739414
44	0xba0ae3d5	-0.0005298232
45	0x3b8288c6	0.00398359
46	0x3be6e581	0.007046402
47	0xbb498050	-0.0030746646
48	0x3c43a9bd	0.011942324
49	0x3ca8fdd7	0.020628853
50	0x3bd41d7d	0.006473242
51	0x3c3cbf23	0.01152018
52	0xbc966e73	-0.018363213
53	0xbbe4e21a	-0.006984961
54	0x3b5e8945	0.003395633
55	0x3c53d077	0.01292812
56	0x3c2ed55e	0.010670988
57	0x3c254d3a	0.010089213
58	0x3a6b1c31	0.00089687394
59	0xbbd8f115	-0.006620536
60	0x3aa90432	0.0012894927
61	0xbc218096	-0.009857317
62	0x3be56ac3	0.0070012524
63	0xbc48feeb	-0.012267808
64	0xbb2f36f9	-0.0026735647
65	0xbc9ce4b2	-0.01915202
66	0xbc1d13e1	-0.009587259
67	0xbbca6d51	-0.0061775823
68	0xbcb5b9c2	-0.022183303
69	0x3c9992fc	0.018746845
70	0xbc28fad9	-0.010313713
71	0x3cd44dd7	0.025916023
72	0xbc989d78	-0.018629774
73	0xbc3052f9	-0.01076197
74	0x3bbe5314	0.0058082435
75	0x3ad4c5ab	0.0016233226
76	0xbc9b514e	-0.018959668
77	0xbbe407a0	-0.006958917
78	0xbc50beef	-0.012740835
79	0xbc794efc	-0.015216585
80	0x3ca92013	0.020645177
81	0xbcb07e4b	-0.021544596
82	0xbb9ba598	-0.004749965
83	0xbc7208f4	-0.014772642
84	0xbbdd4ed2	-0.006753781
85	0xbc04a38b	-0.008095632
86	0x3aa24d1d	0.0012382601
87	0x3c2235dc	0.009900536
88	0xbca0f1c9	-0.019646542
89	0xbb5b0b22	-0.0033423384
90	0x39ec406e	0.00045061432
91	0xbb56674b	-0.0032715376
92	0x3c6abcc7	0.014327235
93	0xbb29dc42	-0.0025918637
94	0xbbd5a890	-0.0065203384
95	0x3cd40e5b	0.025885751
96	0x3b79fd03	0.0038145192
97	0xbc80611c	-0.015671305
98	0xbc3d39f0	-0.011549458
99	0xbb5d47c9	-0.003376471
100	0xbc1045db	-0.008805717
101	0x3bbfc0b2	0.0058518285
102	0xbca49c4b	-0.020094058
103	0xba20ebc6	-0.00061386486
104	0x3b8b7c92	0.0042567933
105	0x3abf88c4	0.0014612903
106	0x3c5f89dc	0.013643708
107	0x3ca1aaad	0.019734705
108	0xbcbee7ab	-0.023303827
109	0x3b3a493c	0.0028424999
110	0xbbf19d3c	-0.00737348
111	0xbbdc632f	-0.006725691
112	0xbbf0a6bd	-0.0073440955
113	0xbcac54a5	-0.021036455
114	0x3cb0db1c	0.021588854
115	0xbc069655	-0.008214553
116	0xbaf2d64a	-0.0018526998
117	0xbb91dbb3	-0.004451239
118	0x3c2ba3d2	0.0104760695
119	0x3c44a3d6	0.012001952
120	0x3ca84d5d	0.020544702
121	0xbccccf09	-0.025001066
122	0x3b96ed8c	0.0046059545
123	0x3c8a17ea	0.016857106
124	0x3bf2eee6	0.007413733
125	0xbb914030	-0.0044327006
126	0xb9d00b48	-0.00039681257
127	0x3b2740aa	0.002552072
128	0x3b667297	0.0035163516
129	0x3cf7a268	0.030228809
130	0x3b3b4e93	0.002858077
131	0xbc2f877a	-0.0107134525
132	0x3c54fd4f	0.012999847
133	0xbc4f1f38	-0.0126417205
134	0x3b2f768a	0.0026773536
135	0x3b85ca63	0.0040829643
136	0xbcca8427	-0.024721218
137	0x3cb388b8	0.021915779
138	0xbc212fae	-0.009838028
139	0xbbde28e4	-0.006779777
140	0x3cc46dbd	0.023978109
141	0x3b826086	0.0039787916
142	0xbc2255ab	-0.00990812
143	0xbc5eae4a	-0.013591358
144	0x3c45a183	0.012062433
145	0x3bf6d064	0.0075321663
146	0x3a284ebc	0.0006420424
147	0x3c2b92d0	0.010472015
148	0x3d36aaab	0.044596355
149	0xbc561731	-0.013067053
150	0xbd5a51dd	-0.053300727
151	0xbc99f0dc	-0.018791609
152	0xbc071cce	-0.008246614
153	0xbc298db5	-0.010348727
154	0xbbba627d	-0.0056880102
155	0xbc3da6a0	-0.011575371
156	0xbba0c1cd	-0.0049059154
157	0x3c2baa0d	0.010477555
158	0x3c3102a2	0.01080385
159	0xbc5148af	-0.012773677
160	0xbba53250	-0.005041398
161	0x3d07c130	0.033143222
162	0xbcb8eb96	-0.022573274
163	0x3b714fbf	0.0036821214
164	0x3c3038e1	0.0107557485
165	0xbb3dada8	-0.0028942619
166	0x3c557cec	0.013030272
167	0x379248d1	1.7438464e-05
168	0x3b9b4c8f	0.004739351
169	0xbb99addd	-0.0046899156
170	0xbc01e745	-0.007928674
171	0xb969b7e2	-0.00022289113
172	0x3c6eb350	0.014569119
173	0x3c712c3a	0.014720017
174	0xbc157257	-0.009121499
175	0x3c75261e	0.014962701
176	0x3cc8ac31	0.02449617
177	0xbd465ad4	-0.048426464
178	0xbc4f0725	-0.012635981
179	0xb9c6593e	-0.00037831994
180	0x3b7c06d6	0.0038456223
181	0xbb126334	-0.0022336962
182	0xbca823a9	-0.020524817
183	0xbbbc4f67	-0.00574677
184	0xbb129a0f	-0.0022369658
185	0xbbc91723	-0.0061367913
186	0x3bd5eb15	0.006528268
187	0xbc3f3d8c	-0.011672389
188	0xbc6c4388	-0.014420398
189	0x3b01cb21	0.0019804912
190	0xbc87972a	-0.016551573
191	0x3c1c151a	0.009526515
192	0x3c13d325	0.009022509
193	0x3be1e0d2	0.0068932557
194	0xbd41b310	-0.047289908
195	0xbb50e080	-0.0031872094
196	0x3d065aa6	0.032801293
197	0xbbd5e329	-0.0065273237
198	0x3c438b4d	0.011935067
199	0xbae53a09	-0.0017488609
200	0x3b9beca8	0.004758436
201	0x395d7ccd	0.00021122694
202	0xbb2e8e1d	-0.0026635
203	0x3a8cec25	0.0010751529
204	0x3ceead95	0.029135505
205	0x3c8d6933	0.017262077
206	0x39ce8a46	0.00039394404
207	0xbb024a73	-0.00198808
208	0xbbd47fc5	-0.006484958
209	0x3c14bf04	0.009078745
210	0x3ad3ec22	0.0016168396
211	0x3c0b8fc7	0.008518166
212	0xbc386b1c	-0.011256006
213	0xbcf8929e	-0.03034335
214	0x3b946c01	0.0045294766
215	0xbb6e1c11	-0.0036332647
216	0x3c310960	0.010805458
217	0xbc31ff5d	-0.010864106
218	0xbc8b7345	-0.017022738
219	0x3ceaeb4e	0.028676655
220	0xbb91e595	-0.004452417
221	0x3adb684f	0.001673946
222	0x3c96f84e	0.018428948
223	0xbcbf254a	-0.02333321
224	0x3c8835c8	0.016627207
225	0x3c9ffe06	0.019530308
226	0xbb7ca3cf	-0.0038549786
227	0x3c6ce221	0.01445821
228	0xbb3610fa	-0.0027781115
229	0x395d0892	0.00021079395
230	0x3d418794	0.047248438
231	0x3c9b0fb0	0.018928379
232	0x3acc92ae	0.0015607679
233	0x3bb6c3a0	0.0055775195
234	0xbc62834f	-0.013825252
235	0xbb89fbf8	-0.004210945
236	0x3c574782	0.013139607
237	0x396685cc	0.00021984352
238	0x3bf7d7a5	0.0075635486
239	0x3ba8d68b	0.0051525286
240	0x3c4b6dee	0.012416346
241	0x3c3f7c30	0.011687323
242	0xbd274a9a	-0.04084263
243	0x3be07e85	0.00685102
244	0x3ab62661	0.0013896936
245	0xbbc3d190	-0.0059759095
246	0x3b1311c3	0.0022441007
247	0xbbe6d43d	-0.0070443437
248	0xbd36e28c	-0.044649646
249	0x3c9b6cb2	0.018972728
250	0x3c28cdfb	0.010303016
251	0xbcb2485a	-0.021763016
252	0x3b62da4a	0.0034614974
253	0x3a827a18	0.00099546
254	0xbc992171	-0.018692704
255	0x3c8827a7	0.01662047

gru.bias_ih_l1 f4 [384]
0	0x3ce751a7	0.028237177
1	0x3ca54a45	0.020177016
2	0x3c1a0b54	0.009402115
3	0xbc45fdce	-0.0120844375
4	0x3c343a26	0.011000192
5	0xbd8123a3	-0.06305625
6	0xbd11b2be	-0.035570852
7	0x3d13d192	0.036088534
8	0xbca5369e	-0.020167645
9	0x3c7a807c	0.015289422
10	0x3b6aec58	0.0035846438
11	0xbc363504	-0.011121038
12	0x3c1df23d	0.009640274
13	0x3c9c8c9f	0.019110022
14	0x3b2bdd2f	0.0026224365
15	0x3c89c4fb	0.01681756
16	0x3c83fa29	0.016110497
17	0xbc050a61	-0.00812015
18	0x3ca1958b	0.019724628
19	0x3d134fed	0.035964895
20	0x3cc830e1	0.02443737
21	0xbaa1d3b3	-0.0012346416
22	0xbd70fb21	-0.058833245
23	0xbbdccaad	-0.006738028
24	0xbc36bd4b	-0.011153529
25	0x3d007044	0.031357065
26	0x3cabf40b	0.020990392
27	0xbc6d649d	-0.01448932
28	0x3bf2509c	0.0073948633
29	0x3d1be91d	0.03806411
30	0xbd4e3da0	-0.05035174
31	0x3cac0a08	0.021000877
32	0x3c3e4eb7	0.011615447
33	0xbc300408	-0.010743149
34	0x3c0053db	0.007832493
35	0xbb66d7d0	-0.003522385
36	0x3b8157b6	0.0039472235
37	0x3be9dc32	0.007136845
38	0x3c3e9226	0.011631524
39	0x3c82075f	0.015872655
40	0x3b4418f0	0.002992209
41	0xbc15e7df	-0.009149521
42	0xbb732a58	-0.0037104096
43	0xbb6030b2	-0.0034208712
44	0xbab23abd	-0.0013597828
45	0x3c49dc10	0.012320533
46	0xbca45905	-0.02006198
47	0x3c183562	0.009290071
48	0xbc91db60	-0.017804801
49	0xbc1b1fe5	-0.0094680535
50	0xbad457e8	-0.0016200515
51	0x3d05effc	0.03269957
52	0xbcda640f	-0.02665904
53	0x3cc6599d	0.024212653
54	0x3c04f157	0.0081141805
55	0xbc8f51bf	-0.017495034
56	0x3d1045f0	0.035222948
57	0x3cdf7a1b	0.027279904
58	0x3c06c555	0.008225759
59	0xbbaaca54	-0.0052121077
60	0x3bd66e30	0.006543897
61	0x3c247130	0.010036752
62	0x3c6bfbb3	0.0144032715
63	0x3bc08894	0.0058756564
64	0xbc01c36c	-0.007920127
65	0xbc86483d	-0.016391868
66	0xbb1f8377	-0.0024339834
67	0x3c336290	0.010948792
68	0xbc843ee3	-0.016143268
69	0xbba4ba45	-0.005027088
70	0xbcc42c6f	-0.023946969
71	0x3cb4b28b	0.022057792
72	0x3c62575a	0.013814772
73	0xbbbe2533	-0.0058027743
74	0x3ad67568	0.0016361894
75	0x3be828c8	0.0070849396
76	0xbd3bd001	-0.045852665
77	0x3cb2d6c5	0.021830926
78	0xb9a728bb	-0.0003188307
79	0x3c2eef2d	0.010677141
80	0xbc5ea737	-0.013589672
81	0xbc3483af	-0.011017724
82	0x3a29e2b9	0.00064806227
83	0x3c708bc9	0.014681765
84	0x3c3e472a	0.0116136465
85	0x3c73880e	0.014863981
86	0x3c53eaef	0.0129344305
87	0x3c89aff7	0.01680754
88	0x3a49d5a3	0.0007699376
89	0x3b6cf455	0.0036156375
90	0x3b182775	0.0023216878
91	0x39259f16	0.0001579489
92	0xbcad58bd	-0.021160478
93	0xba5d2368	-0.0008435757
94	0x3c917b64	0.017759033
95	0x3c23d075	0.0099984305
96	0x3baec2a2	0.0053332606
97	0xbcb21c1c	-0.02174192
98	0xbd0f5fff	-0.03500366
99	0x3c341bf8	0.010992996
100	0x3c223017	0.009899161
101	0x3cc0469f	0.023471175
102	0xbd86d77c	-0.06584069
103	0x3c753448	0.014966078
104	0x3b843147	0.0040341946
105	0xbd17653d	-0.036961783
106	0xbcd3e0ed	-0.025864089
107	0xbc0f3302	-0.008740189
108	0xbcc54279	-0.024079548
109	0x3bddd199	0.0067693708
110	0x3c423e59	0.011855685
111	0xbc0cb420	-0.008587867
112	0xbd02f257	-0.031969395
113	0x3c359c56	0.011084637
114	0x3ca6cd63	0.020361608
115	0x3c51fd6d	0.012816769
116	0x3c187595	0.0093053775
117	0x3c135a7c	0.008993741
118	0xbc929e06	-0.017897617
119	0x3cd5b2b9	0.026086198
120	0x3c5d2b02	0.013499023
121	0xbaad7279	-0.0013232968
122	0xba5dffd4	-0.00084686023
123	0x3cd767c9	0.026294606
124	0xb9fe3cb9	-0.00048491897
125	0x3c579085	0.013157015
126	0xbb78f0a9	-0.0037985242
127	0xbc0aef76	-0.0084799435
128	0xbc0b48b4	-0.0085012205
129	0x3d8d7f33	0.06909027
130	0x3a96e3c6	0.0011511974
131	0x3d965eac	0.07342276
132	0x3d36002b	0.044433754
133	0xbcec3926	-0.028835844
134	0x3dbc4010	0.091919065
135	0x3d2a8367	0.04162922
136	0x3c338c53	0.010958749
137	0x3b470581	0.003036827
138	0x3ce929cc	0.028462313
139	0x3cf94ad2	0.030431185
140	0xbd4fd1df	-0.050737258
141	0x3c1ca11e	0.009559898
142	0x3c4b545c	0.01241025
143	0x3b0a8300	0.002113521
144	0x3c19b945	0.009382551
145	0xbcf84696	-0.030307095
146	0xbb8cc2a3	-0.0042956634
147	0x3d8b4e0f	0.06801998
148	0xbc190b2a	-0.009341041
149	0x3c1f8b16	0.0097377505
150	0x3ce9ee91	0.02855614
151	0x3d85e4ee	0.065378055
152	0xbc9f11ba	-0.019417632
153	0x3d777ddf	0.060422774
154	0xbba07540	-0.00489679
155	0x3c11fbe2	0.008910151
156	0xbbe7a5ec	-0.00706934
157	0xbc933ea7	-0.01797421
158	0xbc5982b3	-0.01327579
159	0x3c4ab538	0.0123723075
160	0x3d116245	0.035494108
161	0xbc906ea8	-0.01763089
162	0x3c007529	0.007840433
163	0xbae3e625	-0.0017387314
164	0x3ba43cd1	0.0050121327
165	0x3b0ed961	0.0021797048
166	0xbd1b7db8	-0.03796169
167	0xbb1c1835	-0.002381814
168	0x3d4025ea	0.046911158
169	0xbca1b178	-0.019737944
170	0xb962dee3	-0.00021636071
171	0x3cfa2960	0.030537307
172	0xba948507	-0.0011331149
173	0xbbc07606	-0.0058734445
174	0xbc809e5c	-0.015700512
175	0x3c9de7d2	0.01927558
176	0x3d9467e3	0.07246377
177	0xbd3336c5	-0.043753404
178	0xbb7a38c7	-0.0038180815
179	0xbc470006	-0.012146002
180	0xbc3758a8	-0.011190571
181	0xbbc2a445	-0.0059399926
182	0x3ccdda18	0.02512841
183	0xbc7783f5	-0.015107145
184	0xbc5ed342	-0.0136001725
185	0xbc57a958	-0.013162933
186	0x3ae3b5cd	0.0017372906
187	0x3cdb2fe1	0.026756229
188	0x3c2a2f10	0.010387197
189	0x3bd07490	0.0063615516
190	0xbb3672c5	-0.0027839404
191	0xbab021ed	-0.0013437845
192	0xbb2acc62	-0.0026061763
193	0xbc639f1e	-0.013892917
194	0x3d89b469	0.06723864
195	0x3c94c838	0.018161878
196	0xbd3e0a9b	-0.046396833
197	0xbce75316	-0.02823786
198	0x3d20a241	0.039217237
199	0x3d973532	0.07383193
200	0xbc5d1b81	-0.013495327
201	0xbbd02aed	-0.0063527734
202	0xb8fb1955	-0.00011973331
203	0xba6bfc33	-0.0009002119
204	0xbcfc99f0	-0.030835122
205	0x3c7f6130	0.015587136
206	0xbb1b49a3	-0.0023695014
207	0x3d5fd40b	0.05464558
208	0xbcbeafa9	-0.02327712
209	0xbcdbc4cc	-0.026827239
210	0x3d1b5b29	0.037928734
211	0xbbdf6f2c	-0.0068186726
212	0x3c95b6fa	0.018275727
213	0x3d49d839	0.04927847
214	0x3b3aad21	0.002848454
215	0xbbf27563	-0.0073992475
216	0xbc92b999	-0.017910765
217	0x3b4afd6b	0.0030973803
218	0x3b967aec	0.00459229
219	0x3c98b49f	0.018640814
220	0xbc13b85f	-0.009016125
221	0x3adfdb6e	0.0017078945
222	0xbbd9c31e	-0.0066455742
223	0xbd4cf91e	-0.050042264
224	0x3c31418f	0.010818853
225	0xbcbefd8f	-0.023314266
226	0x3d60c665	0.054876704
227	0x3cc661e4	0.0242166
228	0xb9cbdf35	-0.0003888548
229	0xbba51ac6	-0.005038592
230	0xbd1816ca	-0.03713111
231	0x3d603521	0.054738168
232	0x3c013951	0.0078872
233	0x3ca01386	0.01954056
234	0x3ba59412	0.0050530517
235	0xbccc2b3b	-0.024922958
236	0xbd13ae90	-0.036055148
237	0x3cb471cd	0.02202692
238	0xbbdf9971	-0.0068237116
239	0x3baf5247	0.0053503844
240	0x3c280f2a	0.010257522
241	0xbc8b706a	-0.017021377
242	0xbd1394b1	-0.036030475
243	0xba68e664	-0.00088844285
244	0xbbc1375b	-0.0058964915
245	0x3b07e9b1	0.0020738656
246	0x3d97bd29	0.07409126
247	0xbb2d2377	-0.0026418844
248	0xbd4da538	-0.050206393
249	0xbc8677b4	-0.0164145
250	0x3ce65ae1	0.028119506
251	0xbca856f4	-0.020549275
252	0x3ca36b87	0.019948734
253	0x3cdacc15	0.026708642
254	0x3d5cd1c5	0.05391099
255	0x3be0e944	0.006863745
