distillog/datasets/BGL/model/noKD.pth (torch, 3299 bytes, 6 tensors)

gru.weight_ih_l0 f4 [12, 30]
0	0xa57a3415	-2.170169e-16
1	0xa8334bc3	-9.952924e-15
2	0x28bd7b9b	2.103682e-14
3	0xa7d922ca	-6.0267317e-15
4	0x28e25341	2.5127146e-14
5	0x2a9d1205	2.7901306e-13
6	0xaa992675	-2.7204945e-13
7	0x3e1b732f	0.15180658
8	0x3e24a4b1	0.1607845
9	0xbeaf7f38	-0.34276748
10	0x3f8cbcfa	1.0995171
11	0x3db9cbe0	0.09072089
12	0xbf12b746	-0.57310903
13	0xbf0346b3	-0.51279753
14	0x3ebebbcf	0.37252662
15	0x3fbcef1a	1.4760468
16	0x3fb38eb2	1.4027922
17	0xbf07b338	-0.5300784
18	0xbe2a57a5	-0.16634996
19	0x3eabaf6d	0.33532277
20	0x3f0c9060	0.549078
21	0xbf6a03b7	-0.9141192
22	0xbf633cb2	-0.8876449
23	0x3f38042a	0.71881354
24	0x3f50ed6f	0.81612295
25	0x3e66d829	0.22543396
26	0xbf685c2b	-0.9076564
27	0xbf18855b	-0.59578484
28	0xbf177494	-0.5916226
29	0x3f293782	0.66100323
30	0x262a86e8	5.916343e-16
31	0xa7c087ae	-5.343781e-15
32	0x27c85885	5.5607124e-15
33	0xa739a8cc	-2.5765412e-15
34	0x282b02dd	9.493028e-15
35	0x2a66973c	2.0480574e-13
36	0xa9795a82	-5.536761e-14
37	0xbe20ef55	-0.15716298
38	0x3f28ecc1	0.6598626
39	0xbe760134	-0.24023896
40	0x3e5e40ca	0.21704403
41	0x3d8ba71b	0.06818982
42	0xbf09a349	-0.5376478
43	0xbed679c3	-0.41889772
44	0xbf3836c2	-0.71958554
45	0x3f7a1f1d	0.97703725
46	0x3ef131cc	0.47108305
47	0x3da5ec42	0.08101703
48	0xbf560087	-0.83594555
49	0x3df158aa	0.117844895
50	0x3cc5b979	0.024136292
51	0xbf39e89a	-0.72620547
52	0xbf033d37	-0.5126528
53	0x3e80a935	0.25129095
54	0xbf1e6d6a	-0.618857
55	0xbe80616c	-0.25074327
56	0x3f0be824	0.54651093
57	0x3edaac26	0.42709464
58	0xbf57d77c	-0.8431318
59	0x3e136db0	0.14397311
60	0x254d9a17	1.7833123e-16
61	0x26e3e506	1.5813366e-15
62	0xa78c4960	-3.893736e-15
63	0x27c90822	5.5797525e-15
64	0xa7f21a97	-6.719732e-15
65	0xa93c72eb	-4.184406e-14
66	0x29bc28c7	8.355951e-14
67	0x3e8b5f56	0.27221173
68	0x3df7b649	0.12095315
69	0xbd4d7cdf	-0.050167914
70	0x3e723b96	0.23655543
71	0xbea7d04e	-0.3277611
72	0xbef804d2	-0.48441178
73	0xbea6f47b	-0.326084
74	0x3d587ed4	0.052855328
75	0xbd9790ca	-0.07400663
76	0x3eba371f	0.3637018
77	0x3dec484a	0.115372255
78	0xbd4180ec	-0.04724209
79	0xbe0c5f8e	-0.13708326
80	0x3ea3f20d	0.32020608
81	0xbedb645d	-0.4285001
82	0xbe085e35	-0.13317187
83	0xbef35d96	-0.47532338
84	0x3e14a539	0.14516152
85	0xbd2ceff5	-0.04222103
86	0xbed86f27	-0.42272303
87	0xbe00b236	-0.12567982
88	0xbda80d09	-0.08205611
89	0xbf1eb6c9	-0.6199766
90	0xa5aef254	-3.0348396e-16
91	0x26b0fe46	1.2281374e-15
92	0xa66ebbd8	-8.2827413e-16
93	0x26c1bd63	1.3443399e-15
94	0x2569a1fa	2.0264408e-16
95	0x27672bb0	3.2081373e-15
96	0x269c6df8	1.0854482e-15
97	0x3e9368c8	0.2879088
98	0x3c47f730	0.01220493
99	0x3e3c4517	0.1838573
100	0x3ea78b31	0.32723382
101	0xbe350f5b	-0.17681639
102	0xbec4216a	-0.38306743
103	0xbe8ce93d	-0.27521697
104	0x3e14b685	0.1452275
105	0xbe3eb9e7	-0.18625604
106	0x3e597df1	0.21239449
107	0x3cb7b66b	0.02242585
108	0x3e52607c	0.20544618
109	0x3d3f8e1c	0.046766385
110	0x3eb89cb8	0.36057067
111	0xbec7ecaf	-0.39047763
112	0x3d40791d	0.046990503
113	0xbe864532	-0.26224667
114	0x3e37b703	0.17940907
115	0xbee059f0	-0.43818617
116	0xbf468362	-0.77544224
117	0xbe92a8d5	-0.28644434
118	0xbe53ba78	-0.20676601
119	0xbe68df6a	-0.22741476
120	0x257f45e9	2.2141411e-16
121	0xa7bfb62b	-5.3210656e-15
122	0x27a59eeb	4.5969e-15
123	0xa762985d	-3.1446397e-15
124	0x278576a8	3.7043563e-15
125	0x29a259fb	7.209854e-14
126	0xa887337e	-1.5010342e-14
127	0x3f49d158	0.7883506
128	0x3f01ecee	0.5075215
129	0xbeea60a6	-0.45776862
130	0x3fb33384	1.4000096
131	0xbf949d99	-1.1610595
132	0xbebc3145	-0.3675634
133	0x3cbbb417	0.022913022
134	0x3f2d916d	0.6780003
135	0xbef7647f	-0.4831886
136	0x3f48407a	0.78223383
137	0xbf96d7d9	-1.1784621
138	0xbe8fe877	-0.28107044
139	0xbddac22a	-0.10681565
140	0x3f50a0d3	0.814954
141	0xbf19c4fa	-0.6006619
142	0x3f7ae717	0.98008865
143	0x3e4e7e68	0.20165408
144	0xbef8c9ca	-0.48591453
145	0x3caa60e4	0.020798154
146	0xbf7ce1e0	-0.9878216
147	0xbfa8185c	-1.3132434
148	0x3fa16d2f	1.2611445
149	0x3f2b3770	0.66881466
150	0xa6e698b9	-1.6000852e-15
151	0x28dd4f04	2.4570196e-14
152	0xa8c2dced	-2.1634138e-14
153	0x2865f440	1.2765017e-14
154	0xa858d001	-1.2035512e-14
155	0xaa9ef18b	-2.8234042e-13
156	0x2a110ac9	1.2882329e-13
157	0xbf218d80	-0.63106537
158	0x3f589d75	0.8461526
159	0xbe3dcf03	-0.18536
160	0xbf2c5860	-0.6732235
161	0x3e319e58	0.1734556
162	0xbf870469	-1.0548221
163	0x3ea64389	0.324734
164	0xbd07980d	-0.03310399
165	0xbed44318	-0.41457438
166	0x3f439afd	0.7640837
167	0x3f43e070	0.7651434
168	0xbe4ebe30	-0.20189738
169	0x3e89f96d	0.2694811
170	0x3e89affc	0.26892078
171	0xbf212a29	-0.62954956
172	0x3f5d41dd	0.86428624
173	0xbf9fed0f	-1.249422
174	0x3e9c90fd	0.30579367
175	0xbf01fff3	-0.5078117
176	0x3da0e18a	0.07855518
177	0x3f1813c6	0.5940517
178	0xbf6b05a9	-0.9180551
179	0x3e1776ef	0.14791463
180	0xa350cb74	-1.13187855e-17
181	0xa580117f	-2.2216316e-16
182	0x24e71c4e	1.0022823e-16
183	0xa53aa28b	-1.6188e-16
184	0xa558b1c2	-1.879524e-16
185	0x26dde2d7	1.5396441e-15
186	0x274b6226	2.8225116e-15
187	0x3d6d6d7c	0.05796574
188	0xbdc069dd	-0.09395192
189	0x3acabe7e	0.0015468148
190	0xbca3c85c	-0.019993
191	0xbca90787	-0.020633472
192	0xbd89dfe3	-0.06732156
193	0x3cd3c73b	0.025851836
194	0xbd02c7a9	-0.031928692
195	0x3dd4ca71	0.10390175
196	0x3d75d031	0.060013
197	0xbd2f14de	-0.04274451
198	0xbda58ca8	-0.08083469
199	0x3cba6708	0.022754207
200	0x3c60ea69	0.013727763
201	0xbc8e7de3	-0.017394012
202	0x3a6369ac	0.0008675109
203	0xbda33a4b	-0.07970103
204	0x3cf24658	0.029574558
205	0x3d568200	0.05237007
206	0xbc7822a3	-0.015144977
207	0xbca3e695	-0.020007411
208	0x3d16ee4e	0.03684836
209	0xbd323b79	-0.04351375
210	0x24456ba5	4.2808744e-17
211	0xa63a2b72	-6.4590593e-16
212	0x26207e7c	5.568257e-16
213	0xa5ee7918	-4.1368475e-16
214	0x25d12437	3.628026e-16
215	0x281db176	8.7537315e-15
216	0xa6fe8af7	-1.7662457e-15
217	0x3d68b1c4	0.056810156
218	0xbe02f589	-0.12788977
219	0x3d6b49cf	0.057443436
220	0xbd81f797	-0.06346052
221	0xbc1707fc	-0.009218212
222	0xbcfd317c	-0.030907385
223	0x3d90b88f	0.07066452
224	0x3c817341	0.015802028
225	0x3d901512	0.07035269
226	0x3c4310b7	0.011905841
227	0xbc6afd4a	-0.014342615
228	0x3b6147a8	0.0034374986
229	0x3d7af43d	0.06126808
230	0x3c7f3b66	0.015578127
231	0x3d130548	0.03589371
232	0x3b82472f	0.003975771
233	0xbd1bbee4	-0.038023844
234	0x3bf98cdb	0.0076156682
235	0x3c85c74e	0.016330387
236	0xbd1ad74d	-0.037802983
237	0xbb93bd92	-0.0045086825
238	0x3cade0c4	0.02122534
239	0xbd177269	-0.036974344
240	0x2851b2fd	1.16406425e-14
241	0xaa4a5c1c	-1.7973161e-13
242	0x2a810bde	2.2923238e-13
243	0xa97a38e7	-5.5560506e-14
244	0x2a67bcb8	2.0582396e-13
245	0x2c5dd5f5	3.152476e-12
246	0xac0613b1	-1.9053476e-12
247	0x3e124698	0.14284742
248	0x3ef380b6	0.47559136
249	0x3ef769a3	0.48322782
250	0x3f84d424	1.037724
251	0xbf5ae9ce	-0.8551301
252	0xbe113ce1	-0.1418338
253	0x3f7d5100	0.9895172
254	0x3f97e2a6	1.1866043
255	0xbeffd42e	-0.49966568

gru.weight_hh_l0 f4 [12, 4]
0	0xbd26e676	-0.04074713
1	0x3f8b4466	1.0880249
2	0xbed5ca3d	-0.41755858
3	0xbbe77af2	-0.007064217
4	0x3e4ffbb7	0.20310865
5	0x3f21a7a8	0.6314645
6	0xc007cb32	-2.121777
7	0x3f4e1ffc	0.80517554
8	0xbf0eed25	-0.55830604
9	0xbe4d5cf8	-0.20054996
10	0xbf7c821e	-0.98636043
11	0x3f235abe	0.63810337
12	0xbf260d7a	-0.64864314
13	0xbd8278d7	-0.063707046
14	0xbfc6aaf0	-1.5520916
15	0x3f87cffc	1.0610347
16	0xbf685f84	-0.90770745
17	0xbf1c30e7	-0.6101212
18	0xbf767a80	-0.9628067
19	0x3f2d1d6b	0.67623013
20	0x3d7f2158	0.06228766
21	0xc0112218	-2.267706
22	0xbf3d77a4	-0.7401068
23	0x3f857909	1.0427562
24	0xbf4cad94	-0.7995236
25	0x3e722a49	0.23648943
26	0x3d55e39e	0.052219026
27	0x3d71e726	0.05905833
28	0xbf0ba6ac	-0.54551196
29	0x3e97faa3	0.29683408
30	0xbc86cdff	-0.016455648
31	0xbca9823c	-0.020691983
32	0x3f839f13	1.0282921
33	0x3fb4a769	1.411359
34	0x3ee445d2	0.4458452
35	0xbf04fce8	-0.51948404
36	0x3f8b4017	1.0878934
37	0x3f78da5d	0.97208196
38	0xbf1b5f29	-0.6069208
39	0x3df1844e	0.11792813
40	0x3e8082a7	0.2509968
41	0x3ef03421	0.4691477
42	0x3f9ec27e	1.2403104
43	0xbf1dd72f	-0.6165647
44	0xbf263996	-0.6493162
45	0xbfbdbc26	-1.4823043
46	0xbf813f98	-1.0097532
47	0x3f840f05	1.0317084

gru.bias_ih_l0 f4 [12]
0	0x3e0fa90c	0.1402933
1	0x3e4b5c31	0.19859387
2	0xbe10fd7f	-0.14159201
3	0xbdeda903	-0.11604502
4	0xbe8557e3	-0.26043615
5	0x3e1edc47	0.15513717
6	0xbfa02694	-1.2511773
7	0xbf9865cc	-1.1906066
8	0x3e41b925	0.18918283
9	0xbee53eb7	-0.4477441
10	0x3e92c757	0.2866771
11	0x3c9ff52a	0.019526083

gru.bias_hh_l0 f4 [12]
0	0xbed648fb	-0.41852555
1	0xbe7af197	-0.24506222
2	0x3b281c68	0.0025651697
3	0xbd9198dd	-0.071092345
4	0xbe8d0631	-0.27543786
5	0x3dc5d3c7	0.09659534
6	0xbfa02a58	-1.2512922
7	0xbf98611d	-1.1904637
8	0x3ec65d85	0.38743225
9	0x3ea858c3	0.3288022
10	0xbf30e26f	-0.6909551
11	0x3d1efa02	0.038812645

fc.weight f4 [2, 4]
0	0x3fc17777	1.5114583
1	0x3f5614f7	0.8362574
2	0x4003f96b	2.0620983
3	0xc03135e3	-2.768914
4	0xbfcf53bf	-1.6197432
5	0xbf5fa1f0	-0.8735647
6	0xbfe64934	-1.799109
7	0x4019605f	2.396507

fc.bias f4 [2]
0	0x3f8c0889	1.0940105
1	0xbf5bc07e	-0.85840595
