distillog/datasets/BGL/model/student.pth (torch, 3299 bytes, 6 tensors)

gru.weight_ih_l0 f4 [12, 30]
000000 98 24 af bd 92 8e fa be aa 0b ea 3e c2 4a a0 be
       -0.085519016 -0.48936898 0.45712024 -0.31307036
000010 30 4b 41 3e e6 15 f7 be 68 d8 cf bd 1a e1 b8 bf
       0.18876338 -0.48258895 -0.10148698 -1.4443696
000020 88 2a 39 c0 45 66 9c bd 9a 9c 8e 3f ed 2f 6c be
       -2.893221 -0.07636694 1.1141541 -0.23065157
000030 fe e6 5e bf 83 ea ad bf ed 52 61 bf 94 a1 20 40
       -0.87071216 -1.3587192 -0.8801716 2.509862
000040 93 19 04 41 e2 55 d1 be 89 bb 4c c0 c9 92 1f 3f
       8.256244 -0.40885836 -3.1989462 0.6233335
000050 4f e8 1b 40 2f 44 1c bf da b2 8b c0 7a a8 63 c0
       2.436054 -0.6104154 -4.3655825 -3.557158
000060 0b f1 b2 40 63 81 9d c0 79 92 e5 bf 02 28 58 3f
       5.591924 -4.9220443 -1.7935325 0.8443605
000070 9d e4 42 c0 d0 31 5b 40 82 ca 99 3e 78 17 aa 3e
       -3.0452034 3.4249153 0.30037314 0.3322103
000080 a4 37 68 be 06 bf d2 3e 66 d3 9d 3e 4a f9 e4 3e
       -0.22677475 0.41161364 0.30825347 0.44721442
000090 4c 58 62 3e da 76 39 c0 ba 39 f5 bf 0b 12 1a bf
       0.22103995 -2.8978791 -1.9158242 -0.6018378
0000a0 ad 6f 2e 40 7b 03 9b 3f 15 31 f3 be 8f b4 65 bf
       2.7255661 1.2110437 -0.47498384 -0.89728636
0000b0 a3 c7 6d 3f 47 7b 13 40 c6 66 aa 40 70 41 7d 3f
       0.92882746 2.3043993 5.3250456 0.98927975
0000c0 01 80 9c bf f7 61 0d 3e bb e5 4b 3f fa 5a 05 3f
       -1.2226564 0.13806902 0.79647416 0.52091944
0000d0 9f d9 0b c0 76 90 a3 c0 46 60 92 40 ea c9 be bf
       -2.1851575 -5.1113844 4.574252 -1.4905369
0000e0 e7 2d 30 bf 7c a0 9c bf 43 1a 77 3f 9d 8c 56 40
       -0.6882004 -1.2236476 0.9652445 3.3523324
0000f0 a0 ed b8 3e f0 9a 9f 3d c0 b9 0d 3c a6 f0 a3 3e
       0.36118793 0.07793224 0.008650243 0.32019538
000100 a0 0d 38 bd fc 63 d6 3e 9c 68 78 3e 33 2b 22 c0
       -0.04493487 0.41873157 0.24258655 -2.5338867
000110 78 65 0b c0 77 cc ff bf ae 66 98 3e 5f 40 bc 3f
       -2.1780682 -1.9984273 0.29765838 1.4707144
000120 56 f0 31 3f 2c 1f 5e c0 0a ab 3e 3f bf 23 31 40
       0.6950735 -3.4706526 0.74479735 2.7678068
000130 41 f2 0a 41 55 70 8e 3e 7d 72 25 c0 5f 70 f7 bf
       8.684144 0.27820078 -2.5851128 -1.9331168
000140 44 f4 a8 3f 7d e6 26 c0 3d e2 c3 c0 58 b5 36 c0
       1.3199544 -2.607818 -6.121367 -2.8548183
000150 41 61 a5 40 06 ba 37 c0 ec 09 19 c0 d7 98 32 bd
       5.168122 -2.870729 -2.3912306 -0.04360279
000160 6a 17 6c c0 03 5c 3b 40 70 4e 6b 3d 00 a7 d0 bd
       -3.688929 2.927491 0.05744785 -0.10188103
000170 9a e2 9e be 6c 86 3f 3e 44 95 9e be e2 70 ee be
       -0.31032258 0.18703622 -0.30973256 -0.46570498
000180 76 4d 84 3e 3c 28 1a c0 9a 98 47 c0 46 f8 dc be
       0.25840348 -2.4087057 -3.118689 -0.43158168
000190 ef d0 2e 3f 60 29 47 bf 51 2e 09 c0 5d 13 68 bf
       0.6828756 -0.7779751 -2.143452 -0.90654546
0001a0 d5 31 9a 40 bc 5b c6 c0 e7 38 bc 40 1f 2e 02 c0
       4.818583 -6.198698 5.881946 -2.034065
0001b0 59 3b 69 bd 58 62 2e 40 86 dd fa 3f a7 e0 ae bf
       -0.056941364 2.7247524 1.9598854 -1.3662308
0001c0 8e 80 43 3e 87 26 dc bf c7 f4 9d 40 e6 c6 4d c0
       0.19092008 -1.7199258 4.93613 -3.2152648
0001d0 6b 97 9f c0 52 8a 8d c0 44 19 2e c0 70 d3 6c 40
       -4.9872336 -4.423135 -2.720292 3.7004051
0001e0 9a d5 9d 3e f0 98 06 3e 90 89 ae 3d 68 eb f1 bd
       0.30827028 0.13144279 0.08522332 -0.11812478
0001f0 bc 0f 87 be 1a 77 a7 3e 28 62 c9 bd ff ae e6 40
       -0.26379192 0.32708055 -0.09833175 7.208862
000200 da 89 c2 3f fb 27 d8 3f 15 0c 8b 3f 37 f4 0f c0
       1.5198319 1.6887201 1.0863062 -2.2492807
000210 17 a2 4c bf 47 5d 8b 40 2e 7c f5 3f a2 8e 7b bf
       -0.7993483 4.3551364 1.9178522 -0.98264515
000220 82 b6 81 40 76 f3 79 3f db 40 92 bf 65 f5 b2 3f
       4.053529 0.97637117 -1.1426042 1.3981138
000230 69 ff 1c 40 39 46 12 be 2d fb d1 40 dd 52 02 c1
       2.453089 -0.142846 6.561911 -8.14523
000240 35 c1 51 c0 c4 68 f8 3f b2 06 2e be f9 32 5d c0
       -3.2774174 1.9406972 -0.16994742 -3.4562361
000250 27 76 8e 40 1d 75 b8 40 e8 de 9e bd f8 bb db 3d
       4.451923 5.764296 -0.0775736 0.107292116
000260 34 e0 20 3e 50 c4 3a 3e 72 64 d4 3e f8 96 9f be
       0.15710527 0.1823895 0.41482884 -0.31169868
000270 8a 69 f4 3e af 34 77 40 ab 54 34 40 6a 61 09 bf
       0.4773677 3.8625906 2.8176677 -0.5366427
000280 a5 f6 01 40 5a 7d b4 bf a5 62 f2 bf cf 73 7e 3f
       2.030679 -1.4100754 -1.8936354 0.9939546
000290 20 5b 98 3f 23 39 82 bf 5d dc 25 40 b4 c3 32 c0
       1.1902809 -1.0173687 2.591575 -2.7931948
0002a0 c7 6f b2 3e ac a9 86 3f fd 83 4f 40 9c 13 97 3f
       0.34850904 1.052053 3.242431 1.1802859
0002b0 73 43 9c 40 5d a2 a0 c0 ac 87 99 c0 32 26 89 3f
       4.8832335 -5.0198197 -4.7978115 1.0714781
0002c0 28 44 07 c0 b3 8b 5b c0 eb 13 90 40 40 fe 15 41
       -2.113535 -3.4304016 4.5024314 9.374573
0002d0 94 c1 c0 be 9c 1d 6b be 5a fc ca 3e 14 6b 2a be
       -0.37647688 -0.22960514 0.39645654 -0.1664241
0002e0 1e 1a f0 3e 94 38 82 be 32 27 c4 3e bc a1 4e 40
       0.46894926 -0.2543379 0.38311154 3.2286215
0002f0 fd 0d 3f bf 84 7a 36 40 61 a9 8a 3e 1a 3d 8b 3f
       -0.7463072 2.8512278 0.2708235 1.0878022
000300 22 e6 8e 3f 32 f9 0f 40 ef f9 e1 bf 68 6b a1 bc
       1.1163981 2.2495847 -1.7654399 -0.019704536
000310 8a 7b a0 3f fb e3 fd 3f bf 25 0f 40 b2 8a 31 3e
       1.2537701 1.9835199 2.2366788 0.17338064
000320 69 8b c5 3f b8 06 1a 40 83 5f 87 40 fb 00 01 c1
       1.543317 2.40666 4.230409 -8.062739
000330 ad e9 d8 bf 80 18 34 c0 b9 d6 96 be df b8 ae 3d
       -1.6946312 -2.8139954 -0.29460695 0.08531355
000340 f2 52 22 40 7c c7 01 41 54 e6 a3 3e f8 a9 92 3d
       2.5363126 8.111202 0.32011664 0.07161325
000350 a4 ff b9 3e 50 62 ae 3e 28 c0 dd 3e c0 6b c8 bc
       0.3632785 0.3405938 0.43310666 -0.024465442
000360 a4 a9 05 3e 3a 4d e3 bf d4 6a 7c bf 88 f6 b7 bf
       0.13052994 -1.7757943 -0.98600507 -1.437211
000370 26 d1 2d 40 4b 5c 7c 40 0f 20 b2 bf fb 2f 35 c0
       2.7158904 3.943133 -1.3916034 -2.8310535
000380 8e 08 af 3f 50 fb 1d c0 ef 42 9a bd ab 38 3c 40
       1.3674486 -2.468464 -0.07532298 2.9409587
000390 f2 21 6a 40 dd 10 ee 3d 68 e8 cf 3f b3 5b 70 3f
       3.6583219 0.1162431 1.62428 0.9388992
0003a0 b6 97 de bc 9d 4f 07 c1 7a b8 88 c0 fc 90 d7 3e
       -0.02717195 -8.456937 -4.272519 0.42102802
0003b0 51 7f 56 c0 18 7c 9f 40 c5 3e 84 be 5e 1d 1b 41
       -3.3515208 4.983898 -0.2582914 9.69467
0003c0 8c 77 1b be 28 92 57 be a4 b2 c2 be 88 e1 d1 3e
       -0.15182322 -0.21051848 -0.38026917 0.4099238
0003d0 60 f8 af 3e a8 68 59 be b4 51 b8 be 89 5b 70 bf
       0.34369183 -0.2123133 -0.35999835 -0.9388967
0003e0 7a 32 ae 3f 43 16 c9 3d 53 12 3f 40 b7 56 ae 3f
       1.3609154 0.09818699 2.9854934 1.3620213
0003f0 f6 86 ba bf 89 b7 7a 3f 0a 4d 3a bf 60 3b 27 3f
       -1.4572437 0.979363 -0.727738 0.65324974

gru.weight_hh_l0 f4 [12, 4]
000000 bc 03 81 bf 1d 5e ff 3f e8 cc 99 bf ff 57 ba bf
       -1.0079265 1.9950596 -1.2015657 -1.4558104
000010 6b bb 97 bf 1d 11 c8 3f 0a ea ad bf f8 65 29 bf
       -1.185407 1.5630223 -1.3587048 -0.66171217
000020 6e 89 c9 bf 3a 74 5d 3f 0e db 86 bf a8 e1 95 be
       -1.5745065 0.8650547 -1.05356 -0.29273725
000030 0c a9 6b 3f 75 2a f9 bd 58 76 15 bf 78 0a b5 bf
       0.9205482 -0.12166301 -0.58383703 -1.414382
000040 94 47 72 bf ab 1d d1 40 cc f5 ca 3f e9 d5 0a 40
       -0.9464047 6.5348716 1.5856261 2.169306
000050 14 b6 04 c0 df dc b7 40 83 fb 9e 3e 57 94 16 40
       -2.0736132 5.745712 0.31051263 2.352804
000060 53 24 f5 3e 38 07 65 bf 7d bb bd 3f 3c 7d 29 be
       0.47879276 -0.8946414 1.4822842 -0.1655168
000070 91 2c ea bf a3 c0 37 40 5c 35 5c bf 32 be 6d 40
       -1.829485 2.8711326 -0.8601892 3.7147336
000080 56 03 19 bf b2 8e 84 bf ff 09 97 3f 44 aa bd bf
       -0.59770715 -1.0356047 1.1799926 -1.4817586
000090 66 98 bf be 1a b7 6f be 3b 7c 66 bf 65 34 68 3f
       -0.37420958 -0.23409691 -0.9003331 0.9070495
0000a0 b8 2f e6 3f c7 9c 07 c0 c0 aa 81 3f 5c 14 8a bf
       1.7983313 -2.118944 1.0130234 -1.0787463
0000b0 1e 08 71 bf 0a da ec 3f a5 cc 2f bf f5 75 bb 3f
       -0.9415301 1.850404 -0.6867164 1.4645373

gru.bias_ih_l0 f4 [12]
000000 da 97 65 be f8 7c ed 3e ca 70 19 bf 85 54 f6 bf
       -0.22421208 0.46384406 -0.5993773 -1.9244543
000010 4f 82 26 3f f3 19 05 3f 8b 4b 14 3e 85 66 36 3f
       0.65042585 0.5199272 0.14481942 0.7125018
000020 24 7f ba be a1 75 c1 3d 27 04 06 3f 38 15 0d 3e
       -0.36425126 0.09446264 0.52350086 0.13777626

gru.bias_hh_l0 f4 [12]
000000 2f da 21 be 76 b6 b6 bc ed a9 f7 be 76 41 e9 bf
       -0.15805887 -0.022303801 -0.4837183 -1.8223102
000010 0e ba 7e 3f b3 4d ce 3e 8f d4 8d be 7c fa 12 3f
       0.99502647 0.40293655 -0.27701232 0.5741346
000020 d4 01 ad 3e 05 05 8b bf 8c ac 8a be c2 5e 2a 3f
       0.33790457 -1.0860907 -0.27084768 0.6655084

fc.weight f4 [2, 4]
000000 fc 0e 06 41 4c 10 da c0 6b b1 08 41 30 57 80 c0
       8.378658 -6.8144894 8.543315 -4.010643
000010 bf 33 0a c1 fc 76 d8 40 52 05 0c c1 43 0f 88 40
       -8.637633 6.7645245 -8.751299 4.251863

fc.bias f4 [2]
000000 68 6b 30 3f af 3d 89 bf
       0.6891389 -1.0721949
