distillog/datasets/BGL/model/teacher.pth (torch, 644963 bytes, 10 tensors)

gru.weight_ih_l0 f4 [384, 30]
0	0x247dcc2c	5.503357e-17
1	0xa436fda5	-3.9679804e-17
2	0xa4a3603f	-7.085303e-17
3	0xa4234cf1	-3.5410163e-17
4	0xa418748f	-3.3058475e-17
5	0xa29a00b9	-4.174255e-18
6	0xa6585fd8	-7.5069947e-16
7	0x3a988458	0.0011636121
8	0x3ba1adc3	0.004934044
9	0xbc787182	-0.015163781
10	0x3d80948a	0.062783316
11	0xbc02c7d0	-0.007982209
12	0xbc58e11b	-0.013237263
13	0xbbb0094d	-0.0053722025
14	0x3c029d93	0.007972139
15	0xb9941d12	-0.0002825042
16	0x3c050958	0.0081199035
17	0xbc1224ed	-0.008919937
18	0x3b364c81	0.0027816596
19	0xbc1b3e4d	-0.009475303
20	0x3c8dbd67	0.017302228
21	0xbd21d353	-0.039508175
22	0x3cfc9864	0.030834384
23	0x3b4d2bab	0.0031306546
24	0xbb1413f5	-0.0022594903
25	0xbb1d0310	-0.0023958124
26	0xbc5fae18	-0.013652347
27	0x3b5b9c36	0.0033509857
28	0x3bfc61b8	0.0077020787
29	0xbbb88752	-0.005631366
30	0xa0264174	-1.4082404e-19
31	0xa18afaf9	-9.417676e-19
32	0x221833e1	2.0627306e-18
33	0xa0a81cab	-2.8479278e-19
34	0x222be9ac	2.3298526e-18
35	0x23d09083	2.2612608e-17
36	0xa3b5950d	-1.9687185e-17
37	0xb995cf29	-0.0002857384
38	0x393b2612	0.00017847892
39	0x39a301e8	0.00031091203
40	0x392a2fb1	0.0001623023
41	0x3985bfdc	0.00025510683
42	0xb835426e	-4.321563e-05
43	0x39b314fe	0.0003415718
44	0xb72fac6b	-1.0470957e-05
45	0x396b59d8	0.00022444816
46	0x394c7a52	0.00019500524
47	0xb98db50f	-0.00027028515
48	0x372efd8d	1.0430243e-05
49	0x38598b04	5.18663e-05
50	0x3825094e	3.934773e-05
51	0xb9b524df	-0.0003455048
52	0x37bf0ced	2.2774993e-05
53	0xb96b7714	-0.00022455706
54	0xb99edee0	-0.00030302163
55	0x38f17b68	0.00011514762
56	0xb7bc8b07	-2.2476086e-05
57	0x379c0c7e	1.8602466e-05
58	0x39a0fef8	0.00030707545
59	0xb9338c89	-0.00017123124
60	0xa4015604	-2.8045274e-17
61	0x24148117	3.2201728e-17
62	0x2507c691	1.177666e-16
63	0x2481f3ef	5.635807e-17
64	0x251a45ad	1.3380978e-16
65	0x2709cdd8	1.9124157e-15
66	0xa6f652d9	-1.7092135e-15
67	0xbba8c57e	-0.005150496
68	0xbb46b2c4	-0.0030318955
69	0x3c52afbd	0.012859282
70	0xb9cbb1a0	-0.00038851518
71	0xbaa4488c	-0.0012533828
72	0x3bc27668	0.0059345253
73	0x3be2dec9	0.0069235307
74	0x3a99605a	0.0011701689
75	0xbba5bb08	-0.0050576963
76	0x3c22378c	0.009900939
77	0x3c78979b	0.015172864
78	0x3c10d41d	0.008839634
79	0x3c5decbd	0.013545212
80	0x3aa128a5	0.0012295438
81	0xbb48a13c	-0.0030613681
82	0x3c7218c8	0.014776416
83	0x3acbc27d	0.0015545633
84	0xba6a3509	-0.00089342945
85	0xbc3ce9d2	-0.0115303565
86	0x386482f9	5.4481414e-05
87	0xbc1455e1	-0.009053678
88	0x3ba89f26	0.005145925
89	0x3bfd16cd	0.0077236653
90	0x22e2bf52	6.145999e-18
91	0x2379ad9e	1.3535082e-17
92	0xa3f8b438	-2.696454e-17
93	0x21c00738	1.3012337e-18
94	0xa39e344a	-1.715254e-17
95	0xa59cd474	-2.720565e-16
96	0x251aa34f	1.3412702e-16
97	0x3ad7b421	0.0016456881
98	0x3a8b1173	0.0010610059
99	0xba6f27b4	-0.00091230427
100	0x3a94333f	0.0011306776
101	0xbaef6337	-0.0018263821
102	0xb9aebccf	-0.0003332854
103	0xbae5bf03	-0.0017528239
104	0x3a1ac368	0.00059037516
105	0xba8a01cc	-0.00105291
106	0xba33b3ba	-0.00068550895
107	0x3b3f6bb5	0.0029208486
108	0x3a272c27	0.00063771236
109	0xbb07e7f6	-0.0020737625
110	0x3951f7f5	0.00020024164
111	0xbaacedcb	-0.0013193426
112	0x3b293dca	0.0025824183
113	0x3a3c72b4	0.0007188723
114	0x3a22e983	0.00062146055
115	0xba62ab02	-0.0008646698
116	0x3acddb42	0.0015705603
117	0xbaaaee5c	-0.0013041007
118	0xbae929b2	-0.0017788915
119	0x3ac0d322	0.001471136
120	0x2220a25d	2.1769998e-18
121	0x22a981fa	4.594516e-18
122	0xa3253bd9	-8.957341e-18
123	0x21a84dc5	1.1404708e-18
124	0xa2da0e81	-5.9104375e-18
125	0xa4979f2a	-6.5755446e-17
126	0x23e9f5df	2.5366041e-17
127	0x3ad260c6	0.0016050569
128	0xb9a4b1bc	-0.0003141294
129	0xba839053	-0.0010037519
130	0x396b7c05	0.00022457547
131	0xbb197485	-0.0023415398
132	0xbaac4be8	-0.001314518
133	0xb95aa807	-0.00020852695
134	0xb8f94d79	-0.00011887676
135	0xb9814b95	-0.0002466111
136	0x3a504270	0.000794447
137	0x3b0d7ae4	0.002158814
138	0xba0d1a24	-0.00053826184
139	0xba6a4822	-0.000893714
140	0x39c82381	0.00038173425
141	0xba913150	-0.0011077318
142	0x3b303930	0.0026889555
143	0xb75935a6	-1.2946699e-05
144	0x396a7a2d	0.00022361493
145	0xba9c6c4f	-0.0011934134
146	0x3adb4f9f	0.0016732103
147	0xbb6a6ef8	-0.003577171
148	0xba9f7605	-0.001216591
149	0x3aedc04b	0.0018138973
150	0xa124bebd	-5.58178e-19
151	0x218819bf	9.222533e-19
152	0x214eca41	7.0063196e-19
153	0x21b07972	1.195837e-18
154	0x218af987	9.417293e-19
155	0x230a9884	7.5132914e-18
156	0xa2dde0ba	-6.014011e-18
157	0xbabee54b	-0.0014564184
158	0x3a91584e	0.0011088939
159	0x397febbe	0.00024406516
160	0xba5e3a69	-0.0008477332
161	0x3ac15ef3	0.0014753029
162	0x397ea0d2	0.00024283238
163	0x3a003807	0.0004891161
164	0xb96b924b	-0.00022465845
165	0x3a8490cb	0.0010113952
166	0x3acb0617	0.0015489486
167	0xb8a50e39	-7.870462e-05
168	0xbac3e678	-0.0014946004
169	0x3a5ab7ec	0.00083434465
170	0x393b7450	0.0001787704
171	0xb8ac24a3	-8.208423e-05
172	0xba6a188c	-0.00089300494
173	0xba9b5c4b	-0.0011853067
174	0x389d625e	7.504666e-05
175	0xb7cc794c	-2.4375178e-05
176	0x39f8ff2f	0.00047492373
177	0x39e548e5	0.00043732594
178	0x39954aec	0.00028475316
179	0xb943ece4	-0.00018684898
180	0x2429c2ec	3.681114e-17
181	0x259c0dc5	2.7071017e-16
182	0xa5fd4833	-4.3937428e-16
183	0x25228cd3	1.4098973e-16
184	0xa5ea11fe	-4.060472e-16
185	0xa784ac61	-3.6824253e-15
186	0x2731c10f	2.4668342e-15
187	0x3cdd0b79	0.02698301
188	0x3c05f69a	0.00817647
189	0xbbc84761	-0.0061120247
190	0x3d5c98c9	0.053856645
191	0xbc0d2b45	-0.008616273
192	0xbb8cd6e3	-0.0042980774
193	0x3baab998	0.005210113
194	0xbbb1abe0	-0.0054221004
195	0x3b3a89a5	0.002846339
196	0xb80d8ae4	-3.374637e-05
197	0xbc1e4d59	-0.009661996
198	0xbb51a7e6	-0.0031990944
199	0xbb2a4185	-0.0025978994
200	0x3c66879c	0.014070418
201	0xbcb332d8	-0.02187483
202	0x3c758600	0.014985561
203	0x3b10c06d	0.002208735
204	0x3acf99e0	0.0015838705
205	0x39de8095	0.0004243894
206	0xbb80cbd1	-0.003930547
207	0xbb851c26	-0.0040621934
208	0xbc11989c	-0.008886483
209	0xbc31d16d	-0.010853154
210	0xa61cbfa3	-5.438309e-16
211	0xa58b4acb	-2.4163338e-16
212	0x26cdbd85	1.4276102e-15
213	0x2518c878	1.325182e-16
214	0x26b638ef	1.2644219e-15
215	0x284f058c	1.1492011e-14
216	0xa7ae8cd4	-4.8447388e-15
217	0xbca2bdd9	-0.019865917
218	0xbbd10ba2	-0.0063795606
219	0x3c96b200	0.018395424
220	0x3bef0674	0.0072944704
221	0x3c8902ae	0.01672491
222	0xbb575a52	-0.0032860232
223	0xbc109cf7	-0.008826486
224	0x3c8f7b20	0.017514765
225	0xbd6275ad	-0.055288006
226	0x3cca5f9b	0.024703791
227	0x3d92399b	0.071398936
228	0x3d48e5cc	0.049047276
229	0x3d7ea761	0.062171344
230	0xbb6acc71	-0.0035827423
231	0x3b8bc60f	0.004265554
232	0x3c12d302	0.008961441
233	0x3d8259d9	0.06364793
234	0xbcaa7eda	-0.02081244
235	0xbce2159e	-0.027598199
236	0x3c735496	0.01485171
237	0xbcf5e59f	-0.030016718
238	0x3ce6c4de	0.028170045
239	0x3d6daf5e	0.05802857
240	0x22cea533	5.6011323e-18
241	0x23485de6	1.08619055e-17
242	0xa3b87019	-1.9996795e-17
243	0x228f7802	3.888729e-18
244	0xa36254c8	-1.2269438e-17
245	0xa4c62059	-8.592361e-17
246	0x2316936a	8.1627324e-18
247	0x3a931c7f	0.0011223702
248	0xb9908e0f	-0.00027571662
249	0xba806c80	-0.000979796
250	0x3a62b5e3	0.0008648319
251	0xbb37e832	-0.0028061983
252	0xbb1b75b2	-0.0023721275
253	0xbb3de539	-0.0028975739
254	0xbab28dcf	-0.0013622585
255	0xbb07ca6c	-0.0020720018

gru.weight_hh_l0 f4 [384, 128]
0	0x3d100835	0.035164077
1	0x3be1ca06	0.006890538
2	0x3cd04769	0.025424676
3	0xbb335cd5	-0.0027368565
4	0x3be08b73	0.006852561
5	0xbc0105cf	-0.00787492
6	0x3cdf4245	0.02725328
7	0x3bcfbe9f	0.0063398625
8	0xbbefc16f	-0.0073167603
9	0xbd44dd1c	-0.04806243
10	0xba81c331	-0.000990009
11	0x3c1882c0	0.009308517
12	0x3c402bbe	0.011729179
13	0xbbe3a22d	-0.006946823
14	0x3cc17b73	0.023618435
15	0x3b701e90	0.003663931
16	0xba8366e2	-0.0010025168
17	0xb9ee7157	-0.00045479342
18	0x3b2fe218	0.0026837643
19	0x39aa999f	0.00032539383
20	0xbb69fdc2	-0.003570423
21	0xbd25d975	-0.040490586
22	0x3c1b9079	0.009494894
23	0x3c0013b4	0.007817198
24	0x3caa1c9d	0.020765597
25	0x3a888d34	0.0010418058
26	0xb986bbbb	-0.00025698342
27	0xbc063414	-0.008191127
28	0xbc009cdb	-0.007849897
29	0xbc40de62	-0.01177177
30	0x3b52ce70	0.0032166503
31	0xbc2858e5	-0.0102751
32	0x3c9dd425	0.019266197
33	0xbaf94114	-0.0019016587
34	0xbae3a860	-0.0017368905
35	0xbc057995	-0.008146663
36	0xbc95a3a1	-0.0182665
37	0xba75af7a	-0.00093721563
38	0x3b8b68cf	0.0042544375
39	0x3ba06459	0.004894775
40	0xbbed94a4	-0.0072503854
41	0x3ac58a55	0.0015071133
42	0xbb291112	-0.0025797528
43	0x393a4222	0.00017762979
44	0x3afcf7bc	0.0019299905
45	0x3afc1597	0.0019232508
46	0xbac35748	-0.0014903331
47	0x3cafeaf8	0.021474347
48	0x3ca06689	0.019580143
49	0x3a9934d3	0.0011688716
50	0xb868289b	-5.5350927e-05
51	0x3c3d59f5	0.011557092
52	0x3bda2c85	0.006658139
53	0xbbab11f9	-0.0052206484
54	0x3aea0b7c	0.0017856206
55	0xbb0ee5d2	-0.0021804464
56	0x3be3b093	0.0069485395
57	0xbbc20241	-0.005920679
58	0x3adaf4f3	0.0016705081
59	0x3b7cc778	0.003857104
60	0xbb5cc1b6	-0.0033684797
61	0x3c121ef0	0.008918509
62	0x3bd5aead	0.006521067
63	0xbc848e0a	-0.01618101
64	0x3b61781d	0.0034403868
65	0xbba64d6f	-0.005075149
66	0xbb9207e1	-0.0044565056
67	0xbc31c4b4	-0.01085012
68	0xbd20aa20	-0.039224744
69	0xbb459e28	-0.0030154083
70	0xbc3d62c9	-0.011559197
71	0x3c0f9b84	0.008765105
72	0x3bcf0c94	0.006318638
73	0x3b676179	0.00353059
74	0x3be055fc	0.0068461876
75	0xbd1bb8f7	-0.038018193
76	0xbc170234	-0.009216834
77	0x3cc793c5	0.024362454
78	0xbca3a672	-0.019976828
79	0xb94ab28e	-0.00019330738
80	0x3a864891	0.0010245015
81	0x39097489	0.00013108751
82	0x3c01c815	0.007921238
83	0x3b1f2ec9	0.002428936
84	0xbc728b9c	-0.014803793
85	0x3a2c36c2	0.0006569439
86	0x3b73032d	0.003708075
87	0xbdb731a4	-0.08945015
88	0x3b40f272	0.0029441384
89	0x3b596a7c	0.0033175042
90	0xbd42fa57	-0.047602024
91	0x3cbf5b96	0.023359101
92	0x3a325370	0.0006802594
93	0xbb6c1b26	-0.0036026924
94	0xbd716cd1	-0.058941666
95	0x3b4f162f	0.0031598916
96	0xba4e7268	-0.0007875324
97	0xbb563713	-0.0032686635
98	0xbba5663c	-0.0050475877
99	0x3aac695d	0.0013153959
100	0x3bbc632b	0.0057491264
101	0x39f97e60	0.00047587138
102	0x3cf17055	0.02947251
103	0x3b9cf047	0.0047893855
104	0x3bcc61df	0.006237253
105	0x3a7095ce	0.0009177596
106	0x3c01e6be	0.007928548
107	0x3bd3d790	0.006464906
108	0x3ca02c02	0.019552235
109	0xbc3f49a5	-0.011675273
110	0xbb6ad7f7	-0.0035834291
111	0x3bdbfef1	0.006713741
112	0x3b4b1978	0.0030990522
113	0x3cab5638	0.020915136
114	0xbb09dfdc	-0.0021037972
115	0xbcc22d6e	-0.023703303
116	0xbc052080	-0.008125424
117	0x3be17032	0.00687983
118	0xbc4659ad	-0.012106341
119	0xbb1a21a1	-0.002351858
120	0xbc25f8b4	-0.010130096
121	0x3b0e8ff4	0.0021753283
122	0xbcf05f11	-0.029342206
123	0xbce841c8	-0.02835168
124	0x3c7af549	0.01531727
125	0xb940fbc7	-0.00018404341
126	0xbc1d6eb8	-0.009608917
127	0x3b2eac5e	0.0026653032
128	0x39fd0522	0.00048259745
129	0x36a42d3b	4.8928464e-06
130	0x39a4d5aa	0.0003143971
131	0x375bef50	1.31091365e-05
132	0xb82e5c15	-4.157059e-05
133	0x387420e3	5.820476e-05
134	0xb7107997	-8.611379e-06
135	0x3855d4ef	5.0981467e-05
136	0xb7a2e872	-1.9420146e-05
137	0xba8b0b06	-0.0010608144
138	0xb746beed	-1.1846173e-05
139	0x36cb0f7a	6.051673e-06
140	0x397eef40	0.00024312455
141	0x3684bb19	3.9556876e-06
142	0xb913320e	-0.0001403766
143	0x37da6464	2.6034373e-05
144	0xb938a2f8	-0.00017608318
145	0xb75d1e02	-1.3179613e-05
146	0xb6f4c49a	-7.294654e-06
147	0x370b4855	8.301887e-06
148	0xb7bc1f74	-2.2425993e-05
149	0xb9eb0547	-0.00044826625
150	0x39291920	0.00016126456
151	0x388cbbd8	6.710709e-05
152	0x39bff930	0.00036616018
153	0x37e8afca	2.7738413e-05
154	0x396dfc8a	0.0002269616
155	0xb8f8422f	-0.00011837889
156	0x38001f62	3.0546806e-05
157	0x3802b42f	3.1162224e-05
158	0xb6ad07bc	-5.156702e-06
159	0xb8069e8d	-3.209575e-05
160	0x3990bb1c	0.00027605228
161	0xb710d45f	-8.632515e-06
162	0xb50a4ff0	-5.152533e-07
163	0xb9ba46ab	-0.00035529336
164	0x3840f764	4.6006768e-05
165	0xb7c0be5f	-2.2976832e-05
166	0xb782360e	-1.5522379e-05
167	0x384d5104	4.895126e-05
168	0xba16e3f5	-0.0005756014
169	0xb58f7ce5	-1.0690679e-06
170	0xb71e0794	-9.419298e-06
171	0x383a2ff8	4.439053e-05
172	0x38b5aebc	8.6632994e-05
173	0x37240780	9.776908e-06
174	0x3621e85c	2.412612e-06
175	0xb9c00a0d	-0.00036628582
176	0x39b9e785	0.00035458445
177	0xb72a0b0a	-1.013536e-05
178	0x37b8a58a	2.2011594e-05
179	0x3874016e	5.8175465e-05
180	0x372b00c4	1.01925725e-05
181	0xba0067ca	-0.0004898278
182	0x3899efd5	7.340281e-05
183	0x38c8374c	9.547043e-05
184	0x37c6184c	2.3614753e-05
185	0xb7d0c49a	-2.4887082e-05
186	0x38aae11a	8.14816e-05
187	0x3758bc56	1.2918454e-05
188	0x35bc4014	1.4025741e-06
189	0xb6e8eed9	-6.9419443e-06
190	0xb94ffadd	-0.00019834512
191	0xb8e2831b	-0.0001080094
192	0x3853e097	5.0515486e-05
193	0xb7851fc2	-1.5869624e-05
194	0xb881c68f	-6.188184e-05
195	0xba0c3a74	-0.00053492864
196	0xbaa481a4	-0.0012550843
197	0xb73d39ec	-1.1278764e-05
198	0xb9d90e55	-0.00041400144
199	0x3a366b9d	0.00069587847
200	0x37b7fee2	2.1933989e-05
201	0x38c65c42	9.45856e-05
202	0xb88b2d81	-6.636512e-05
203	0xba109a15	-0.0005516124
204	0x39a97993	0.00032324772
205	0x398de7e9	0.00027066402
206	0xba1c0d01	-0.00059528655
207	0xb76e1e49	-1.4192957e-05
208	0xb7e167d4	-2.6870439e-05
209	0x37e00e3f	2.6709515e-05
210	0xb7fb04e7	-2.9923815e-05
211	0x398e5ad5	0.00027152026
212	0xb8dc5a42	-0.00010507229
213	0x36e383ae	6.7804567e-06
214	0x38532d83	5.0348706e-05
215	0xbaa8cde9	-0.0012878749
216	0x37889ea9	1.6286345e-05
217	0x384a1f4e	4.8189708e-05
218	0xba252a30	-0.0006300537
219	0x3a0e0a49	0.0005418403
220	0xb7906ab5	-1.7215827e-05
221	0xb8a60cfb	-7.9179146e-05
222	0xba471be2	-0.00075954024
223	0xb79aee0b	-1.8469078e-05
224	0xb7068765	-8.018546e-06
225	0xb958ddc8	-0.00020681985
226	0x38951611	7.108984e-05
227	0xb5ced738	-1.5410833e-06
228	0xb7c71992	-2.3734556e-05
229	0xb617087c	-2.2505692e-06
230	0x3a47f713	0.00076280645
231	0x38351908	4.3177075e-05
232	0x384bf458	4.8626534e-05
233	0xb7535e91	-1.2598598e-05
234	0x3824ce52	3.9292798e-05
235	0x37a77aa9	1.996507e-05
236	0x3a42426c	0.00074104103
237	0xb92bea9b	-0.00016395228
238	0xb8204899	-3.8214584e-05
239	0x39a04054	0.00030565506
240	0x34da7012	4.0687206e-07
241	0x39b8ce60	0.00035248976
242	0x394ad7f6	0.00019344673
243	0xb99f7839	-0.00030416416
244	0xb98f6485	-0.00027349978
245	0x397db7ce	0.00024196433
246	0xb923029f	-0.00015545868
247	0x37791641	1.4846738e-05
248	0xb8e98bff	-0.00011136382
249	0xb71fd301	-9.526267e-06
250	0xba039f3d	-0.0005020982
251	0xba43ee24	-0.00074741454
252	0x39a1fef9	0.00030898282
253	0xb9f004ab	-0.00045779845
254	0x391cf7af	0.00014969589
255	0xb847d205	-4.7640893e-05

gru.bias_ih_l0 f4 [384]
0	0x3c0e3dc7	0.008681721
1	0x3906ac14	0.0001284334
2	0x3a52ba07	0.00080385845
3	0x3b5146eb	0.003193314
4	0x3a578187	0.00082209
5	0xba1a18c8	-0.00058783265
6	0xbc546c6a	-0.012965301
7	0xbdd428ad	-0.10359321
8	0x3b96f25b	0.0046065277
9	0x3e02110d	0.12701817
10	0xbb3cd8e1	-0.0028815793
11	0x3a0813ab	0.0005190919
12	0x3ee6a275	0.4504582
13	0xbb10170a	-0.0021986389
14	0xbc9174fc	-0.017755978
15	0x3dc038e9	0.09385855
16	0xbb552725	-0.0032524553
17	0xba85d26a	-0.0010209803
18	0xbb88ee24	-0.004178779
19	0x3a55859d	0.0008145215
20	0xb695f502	-4.4690687e-06
21	0xbd9469c5	-0.072467364
22	0x3db561b8	0.08856529
23	0x3cbac3d1	0.02279845
24	0x3d04ad76	0.032391988
25	0x3b37544d	0.0027973831
26	0x3d040a47	0.032236364
27	0x3c8f7299	0.0175107
28	0x3d131774	0.03591104
29	0x3d942cc0	0.07235098
30	0xba99cd84	-0.0011734222
31	0x3ddde3c1	0.10834456
32	0x3bb97f38	0.0056609176
33	0x3a739a48	0.0009292704
34	0xbaff7141	-0.0019488708
35	0x3d72aaea	0.059245028
36	0xbd47273b	-0.048621397
37	0xbbd0c119	-0.0063706753
38	0x3bc8ab9a	0.006123972
39	0x3b3fb726	0.0029253452
40	0x3e1a64a8	0.1507746
41	0x397ec190	0.00024295435
42	0x3aafbc7b	0.0013407612
43	0xbbfd2854	-0.0077257548
44	0x3c9c9841	0.01911557
45	0x3abf5e91	0.0014600327
46	0x3bb73894	0.0055914614
47	0x3d114eaf	0.03547543
48	0xbc96d228	-0.018410757
49	0xbbb88550	-0.0056311265
50	0xbb81c9ba	-0.0039608153
51	0x3d31d683	0.043417465
52	0xbb49e50c	-0.0030806689
53	0x3d79bc7e	0.060970776
54	0x3be76911	0.0070620854
55	0x3d5c8a35	0.053842742
56	0x3b26d58a	0.002545687
57	0x3b6afc57	0.0035855973
58	0x3d25095e	0.040292136
59	0xba257a58	-0.0006312481
60	0xba7995a7	-0.0009520896
61	0x3d960cb1	0.073266394
62	0x3e16be74	0.1472109
63	0xbc859763	-0.016307538
64	0x39a07049	0.00030601237
65	0xbaf57374	-0.0018726424
66	0xba8452bc	-0.0010095458
67	0x3d1f5a65	0.038904566
68	0x3e02b218	0.1276325
69	0x3a8a90f7	0.0010571767
70	0x3cf8c2c7	0.030366315
71	0xbb70c75e	-0.0036739926
72	0x3c92eb77	0.017934544
73	0xbc108d5c	-0.008822765
74	0x3c8cb964	0.017178245
75	0x3e341a51	0.17588164
76	0xbdd00517	-0.10157221
77	0xbe06f97a	-0.13181105
78	0x3e091538	0.13387
79	0x39ee92c7	0.00045504255
80	0xbc04c296	-0.0081030335
81	0xbbe9b5a8	-0.007132251
82	0x3ee01a9c	0.437703
83	0x3cdd6578	0.027025923
84	0x3c94a1d3	0.01814357
85	0x3b6d4ed2	0.003621031
86	0xbe167d5a	-0.14696255
87	0x3f18a5c6	0.5962795
88	0x3996bcc6	0.00028750877
89	0x3e40dc97	0.18834148
90	0x3c7aad53	0.015300113
91	0xbdbe63ed	-0.09296403
92	0xbb581b56	-0.0032975278
93	0x3b153861	0.00227692
94	0x3db46060	0.088074446
95	0x3e4fbdd0	0.20287251
96	0x3dd15726	0.102217
97	0xbe0dcddb	-0.13848059
98	0x3b348058	0.002754232
99	0x3b209cc4	0.0024507502
100	0xbb5c8182	-0.0033646529
101	0xba9dfca3	-0.0012053441
102	0x3e2c3635	0.16817553
103	0xbaf18813	-0.0018427394
104	0x394ce8fb	0.00019541748
105	0xbb104b03	-0.0022017367
106	0x3dcb9786	0.0994101
107	0x39aa01d5	0.00032426292
108	0x3d8f5eac	0.07000479
109	0x3e03eef5	0.12884124
110	0x3b792059	0.0038013665
111	0x3d48c1b6	0.049012862
112	0xbb9b184b	-0.0047331206
113	0xbd42dc16	-0.04757317
114	0xbd1c856f	-0.03821319
115	0xbd07da3b	-0.033167105
116	0x3e7f6120	0.24939394
117	0x3e8bf900	0.2733841
118	0x3ea797da	0.3273304
119	0x3b56a7b3	0.0032753765
120	0xbe3c052b	-0.18361346
121	0x3ab97595	0.0014149422
122	0x3d11cf36	0.035598002
123	0xbceed2e9	-0.029153304
124	0x3d915ceb	0.07097801
125	0x3d715a17	0.058923807
126	0x3da0cde7	0.07851773
127	0x3b2396d5	0.002496173
128	0xbcdf0b1e	-0.02722698
129	0x3b27d2da	0.0025607855
130	0xbe44ccdf	-0.19218777
131	0xbaef7008	-0.0018267641
132	0xb9f2dc8d	-0.0004632216
133	0xba9f2bd0	-0.0012143794
134	0xbda45f27	-0.08025961
135	0xbe05f9a5	-0.13083513
136	0xbc07be57	-0.008285127
137	0xbeaf0184	-0.34180844
138	0x3aa58501	0.0012628139
139	0x3b1c825a	0.0023881407
140	0xbe9c36e1	-0.3051062
141	0x3a3fe999	0.00073208805
142	0xbecadd3c	-0.39621913
143	0xbe5312c8	-0.20612633
144	0xbd25d6b9	-0.04048798
145	0xbb0aea3b	-0.002119674
146	0xbb4ca362	-0.0031225313
147	0xbbba68d5	-0.0056887665
148	0xbac97201	-0.0015369059
149	0xbe50207a	-0.20324889
150	0xbdeecb43	-0.11659863
151	0xbe5cc04d	-0.21557732
152	0xbe49f66b	-0.19722907
153	0xbb99a74f	-0.004689134
154	0xbe81ee8c	-0.2537731
155	0xbd6c56d7	-0.057700004
156	0xbd3347b2	-0.043769546
157	0xbdd74147	-0.105104975
158	0x3adda365	0.0016909657
159	0xbe9ad5b3	-0.30241165
160	0xbddfa398	-0.10919875
161	0xbba6bc02	-0.0050883302
162	0x3b72e8eb	0.00370651
163	0xbd85de8c	-0.06536588
164	0xbe273c82	-0.16331676
165	0x3a1bdcb9	0.0005945671
166	0xbba0b11d	-0.004903926
167	0xbb06abf7	-0.0020549276
168	0xbe109287	-0.14118396
169	0xbb6dd509	-0.003629031
170	0x3a18caff	0.00058285886
171	0xbb4243f9	-0.0029642566
172	0xbd929044	-0.07156423
173	0xbc2a17f7	-0.01038169
174	0xbb8433ea	-0.004034509
175	0xbeca79d4	-0.39546072
176	0xbed60678	-0.4180181
177	0xbc08d38a	-0.008351216
178	0xbbb2039f	-0.0054325606
179	0xbe935664	-0.28776848
180	0x3b614674	0.0034374269
181	0xbdc3b65e	-0.09556268
182	0xbbbd1efb	-0.0057715154
183	0xbe50bea7	-0.20385228
184	0xbc0ab090	-0.008464947
185	0xbc93564b	-0.017985484
186	0xbcf5b7b5	-0.029994825
187	0x3a60f868	0.0008581937
188	0x3afab47f	0.0019127278
189	0xbe137a35	-0.14402087
190	0xbe9bc895	-0.3042647
191	0xbda25050	-0.07925475
192	0xb8fc27f0	-0.00012023735
193	0xbc41566c	-0.01180039
194	0x3b928823	0.004471795
195	0xbe09de4c	-0.13463706
196	0xbe74c3d2	-0.23902825
197	0xbb0fc102	-0.002193511
198	0xbd5c4b6f	-0.053782877
199	0xbd2e26ed	-0.04251759
200	0xbd0af443	-0.033924352
201	0xbb2d37bd	-0.0026430928
202	0xbd8a8dd6	-0.06765334
203	0xbe8e4acb	-0.27791438
204	0x3e97d3ae	0.29653686
205	0xbe392978	-0.18082225
206	0xbe65cd20	-0.2244153
207	0xba6fedd8	-0.0009152568
208	0xbb6cd327	-0.0036136599
209	0xbb6c4915	-0.0036054302
210	0xbf42f0c0	-0.76148605
211	0xbcfd6598	-0.030932233
212	0xbcccd526	-0.02500398
213	0xbaa58a2b	-0.0012629678
214	0xbdd6f9bd	-0.104968525
215	0xbd03247e	-0.032017224
216	0x3a4d3159	0.0007827483
217	0xbec5a91e	-0.3860559
218	0xbd858fdb	-0.06521579
219	0xbe0860fa	-0.13318244
220	0xbb27cefc	-0.002560555
221	0xbaf2afd5	-0.0018515537
222	0xbdc7edc5	-0.09762148
223	0xbe5b32f0	-0.2140615
224	0xbe221760	-0.1582923
225	0xbdc6d64c	-0.09708843
226	0xbb6539f9	-0.0034977181
227	0xbb8f6a84	-0.0043767113
228	0x36d2a79b	6.2779995e-06
229	0xbb68ce86	-0.0035523488
230	0xbe70104c	-0.23443717
231	0xba656b91	-0.00087516854
232	0xbc85c4c3	-0.016329175
233	0x39061577	0.00012787232
234	0xbde9aa35	-0.114094175
235	0xba027228	-0.0004976117
236	0xbddd95fa	-0.108196214
237	0xbea4e8ed	-0.32208958
238	0xbbc8b57c	-0.0061251502
239	0xbe0f0c96	-0.13969645
240	0xbbbfe050	-0.0058555976
241	0xbe12321c	-0.14276928
242	0xbe9bc96d	-0.30427113
243	0xbb31875f	-0.0027088744
244	0xbf0ea7b8	-0.5572467
245	0xbf19aa5b	-0.60025567
246	0xbed2979d	-0.41131297
247	0xbb9ce81a	-0.004788411
248	0xbe6f127a	-0.23346892
249	0xbc54ae11	-0.012980954
250	0xbdc782ae	-0.09741722
251	0xbddb31b3	-0.10702839
252	0xbdebaba2	-0.11507346
253	0xbe58f290	-0.2118628
254	0xbe900f6c	-0.28136766
255	0xba72f4c8	-0.00092680426

gru.bias_hh_l0 f4 [384]
0	0x3c0e3dc9	0.008681723
1	0x3906ac14	0.0001284334
2	0x3b92e2eb	0.004482617
3	0x3b5146eb	0.003193314
4	0x3a578187	0.00082209
5	0xba1a18c8	-0.00058783265
6	0xbc6181be	-0.013763843
7	0xbdbaa623	-0.09113719
8	0x3b96f25b	0.0046065277
9	0x3e000de2	0.12505296
10	0xbb3cd8e1	-0.0028815793
11	0x3a0813ab	0.0005190919
12	0x3eeaf71a	0.4589165
13	0xbb10170a	-0.0021986389
14	0xbcd8bd94	-0.026457585
15	0x3dc018eb	0.09379753
16	0xbb554d82	-0.003254742
17	0xba85d26a	-0.0010209803
18	0xbb88ee24	-0.004178779
19	0x3a55859d	0.0008145215
20	0xb695f502	-4.4690687e-06
21	0xbdc77832	-0.09739722
22	0x3db50918	0.08839625
23	0x3cbab314	0.02279047
24	0x3d0514cd	0.03249054
25	0x3b37544d	0.0027973831
26	0x3d042e81	0.032270912
27	0x3c88407d	0.016632313
28	0x3d13173f	0.03591084
29	0x3d8792cb	0.066197954
30	0xba99cd84	-0.0011734222
31	0x3ddde3c1	0.10834456
32	0x3bb98724	0.005661862
33	0x3a739a48	0.0009292704
34	0xbaff7141	-0.0019488708
35	0x3d72aaee	0.059245043
36	0xbd5e0269	-0.054201517
37	0xbbd0c119	-0.0063706753
38	0x3bc8ab9a	0.006123972
39	0x3b3fb726	0.0029253452
40	0x3e181487	0.1485158
41	0x397ec190	0.00024295435
42	0x3aafbc7b	0.0013407612
43	0xbbfd2854	-0.0077257548
44	0x3c9c98ae	0.019115772
45	0x3abf5e91	0.0014600327
46	0x3bb73894	0.0055914614
47	0x3d0e8843	0.034797918
48	0xbc96dce8	-0.018415883
49	0xbbb88550	-0.0056311265
50	0xbb81c9ba	-0.0039608153
51	0x3d31d683	0.043417465
52	0xbb49e50c	-0.0030806689
53	0x3d79bc7c	0.06097077
54	0x3be76911	0.0070620854
55	0x3d5c8a73	0.053842973
56	0x3b26d58a	0.002545687
57	0x3b6afc57	0.0035855973
58	0x3d2524af	0.040318187
59	0xba257a58	-0.0006312481
60	0xba7995a7	-0.0009520896
61	0x3d8ab360	0.06772494
62	0x3e16d50f	0.14729713
63	0xbc86a736	-0.016437154
64	0x39a07049	0.00030601237
65	0xbaf57374	-0.0018726424
66	0xba8452bc	-0.0010095458
67	0x3d1f510c	0.03889565
68	0x3e0dc83b	0.13845913
69	0x3a8a90f7	0.0010571767
70	0x3cf8c333	0.030366516
71	0xbae6194f	-0.001755515
72	0x3c92eb6f	0.01793453
73	0xbc108d5c	-0.008822765
74	0x3c8cbf33	0.017181015
75	0x3e3324f1	0.17494561
76	0xbdd3fd7b	-0.10351082
77	0xbde236cc	-0.11045608
78	0x3e091b83	0.13389401
79	0x39ee92c7	0.00045504255
80	0xbc04c296	-0.0081030335
81	0xbbe9b5a8	-0.007132251
82	0x3ee02094	0.43774855
83	0x3cdd6578	0.027025923
84	0x3c94bf0a	0.0181575
85	0x3b6d4ed2	0.003621031
86	0xbe0ad88c	-0.13559169
87	0x3f2022c0	0.62553024
88	0x3996bcc6	0.00028750877
89	0x3e40dcbb	0.18834202
90	0x3c7f1ce7	0.015570856
91	0xbdf9f1be	-0.12204312
92	0xbb581b56	-0.0032975278
93	0x3b153861	0.00227692
94	0x3db6e625	0.08930615
95	0x3e50042c	0.20314091
96	0x3dd140cc	0.10217437
97	0xbe1977ae	-0.1498706
98	0x3b348058	0.002754232
99	0x3b209cc4	0.0024507502
100	0xbb5c8182	-0.0033646529
101	0xba9dfca3	-0.0012053441
102	0x3e2c086f	0.16800092
103	0xbaf18813	-0.0018427394
104	0x394ce8fb	0.00019541748
105	0xbb104b03	-0.0022017367
106	0x3dcb8f68	0.09939462
107	0x39aa01d5	0.00032426292
108	0x3d8f5ab1	0.0699972
109	0x3e03e608	0.12880719
110	0x3b792059	0.0038013665
111	0x3d48c1a3	0.04901279
112	0xbb9b184b	-0.0047331206
113	0xbd3f7c13	-0.046749186
114	0xbd1655fd	-0.0367031
115	0xbd086015	-0.033294756
116	0x3e7f611b	0.24939387
117	0x3e8bf968	0.2733872
118	0x3ea79300	0.3272934
119	0x3b56a7b3	0.0032753765
120	0xbe536b52	-0.20646408
121	0x3ab97595	0.0014149422
122	0x3d12cc0b	0.03583912
123	0xbce8059e	-0.028322991
124	0x3d915905	0.07097057
125	0x3d9694a4	0.0735257
126	0x3da0cde7	0.07851773
127	0x3b2396d5	0.002496173
128	0xbcdf0b1e	-0.02722698
129	0x3b27d2da	0.0025607855
130	0xbe44cd19	-0.19218864
131	0xbaef7008	-0.0018267641
132	0xb9f2dc8d	-0.0004632216
133	0xba9f2bd0	-0.0012143794
134	0xbda45f27	-0.08025961
135	0xbe05fa50	-0.13083768
136	0xbc07be57	-0.008285127
137	0xbeaf0197	-0.341809
138	0x3aa58501	0.0012628139
139	0x3b1c825a	0.0023881407
140	0xbe9c278f	-0.3049893
141	0x3a3fe999	0.00073208805
142	0xbecadd26	-0.39621848
143	0xbe5312c8	-0.20612633
144	0xbd25d6b9	-0.04048798
145	0xbb0aea3b	-0.002119674
146	0xbb4ca362	-0.0031225313
147	0xbbba68d5	-0.0056887665
148	0xbac97201	-0.0015369059
149	0xbe501bb0	-0.20323062
150	0xbdeecb43	-0.11659863
151	0xbe5cc04d	-0.21557732
152	0xbe49f619	-0.19722785
153	0xbb99a74f	-0.004689134
154	0xbe81ee8c	-0.2537731
155	0xbd6c56d7	-0.057700004
156	0xbd3347b2	-0.043769546
157	0xbdd74147	-0.105104975
158	0x3adda365	0.0016909657
159	0xbe9ad5b3	-0.30241165
160	0xbddfa398	-0.10919875
161	0xbba6bc02	-0.0050883302
162	0x3b72e8eb	0.00370651
163	0xbd85de8c	-0.06536588
164	0xbe273c82	-0.16331676
165	0x3a1bdcb9	0.0005945671
166	0xbba0b11d	-0.004903926
167	0xbb06abf7	-0.0020549276
168	0xbe109284	-0.14118391
169	0xbb6dd509	-0.003629031
170	0x3a18caff	0.00058285886
171	0xbb4243f9	-0.0029642566
172	0xbd929044	-0.07156423
173	0xbc2a17f7	-0.01038169
174	0xbb8433ea	-0.004034509
175	0xbeca79b5	-0.3954598
176	0xbed60678	-0.4180181
177	0xbc08d38a	-0.008351216
178	0xbbb2039f	-0.0054325606
179	0xbe935664	-0.28776848
180	0x3b614674	0.0034374269
181	0xbdc3b65e	-0.09556268
182	0xbbbd1efb	-0.0057715154
183	0xbe50bea6	-0.20385227
184	0xbc0ab090	-0.008464947
185	0xbc93564b	-0.017985484
186	0xbcf5b7b3	-0.029994821
187	0x3a60f868	0.0008581937
188	0x3afab47f	0.0019127278
189	0xbe137a34	-0.14402086
190	0xbe9bc895	-0.3042647
191	0xbda25050	-0.07925475
192	0xb8fc27f0	-0.00012023735
193	0xbc41566c	-0.01180039
194	0x3b928823	0.004471795
195	0xbe09de4c	-0.13463706
196	0xbe74c3ff	-0.23902892
197	0xbb0fc102	-0.002193511
198	0xbd5c4b6f	-0.053782877
199	0xbd2e26ed	-0.04251759
200	0xbd0af443	-0.033924352
201	0xbb2d37bd	-0.0026430928
202	0xbd8a8dd6	-0.06765334
203	0xbe8e4acb	-0.27791438
204	0x3e986353	0.29763278
205	0xbe392cde	-0.18083522
206	0xbe65cd20	-0.2244153
207	0xba6fedd8	-0.0009152568
208	0xbb6cd327	-0.0036136599
209	0xbb6c4915	-0.0036054302
210	0xbf42f0c0	-0.76148605
211	0xbcfd6598	-0.030932233
212	0xbcccd526	-0.02500398
213	0xbaa58a2b	-0.0012629678
214	0xbdd6f494	-0.10495868
215	0xbd045d1e	-0.032315366
216	0x3a4d3159	0.0007827483
217	0xbec5a937	-0.38605663
218	0xbd858fdb	-0.06521579
219	0xbe086134	-0.1331833
220	0xbb27cefc	-0.002560555
221	0xbaf2afd5	-0.0018515537
222	0xbdc7eded	-0.097621776
223	0xbe5b32f0	-0.2140615
224	0xbe221761	-0.15829231
225	0xbdc6d5fa	-0.097087815
226	0xbb6539f9	-0.0034977181
227	0xbb8f6a84	-0.0043767113
228	0x36d2a79b	6.2779995e-06
229	0xbb68ce86	-0.0035523488
230	0xbe70104a	-0.23443714
231	0xba656b91	-0.00087516854
232	0xbc85c4c3	-0.016329175
233	0x39061577	0.00012787232
234	0xbde9aa35	-0.114094175
235	0xba027228	-0.0004976117
236	0xbddd95fa	-0.108196214
237	0xbea4e8ca	-0.32208854
238	0xbbc8b57c	-0.0061251502
239	0xbe0f0c96	-0.13969645
240	0xbbbfe050	-0.0058555976
241	0xbe12321d	-0.14276929
242	0xbe9bc96d	-0.30427113
243	0xbb31875f	-0.0027088744
244	0xbf0ea7b1	-0.55724627
245	0xbf19aa5c	-0.6002557
246	0xbed2979d	-0.41131297
247	0xbb9ce81a	-0.004788411
248	0xbe6f1ac1	-0.2335005
249	0xbc54ae11	-0.012980954
250	0xbdc782ae	-0.09741722
251	0xbddb31b1	-0.10702837
252	0xbdebaba2	-0.11507346
253	0xbe58f290	-0.2118628
254	0xbe900f6a	-0.2813676
255	0xba72f4c8	-0.00092680426

gru.weight_ih_l1 f4 [384, 128]
0	0x38042b6f	3.1511703e-05
1	0x37626393	1.3493834e-05
2	0x3863b871	5.4292792e-05
3	0xb81c24e6	-3.7227663e-05
4	0x37f2f988	2.8964845e-05
5	0xb7cec215	-2.464749e-05
6	0xb6dff496	-6.6743914e-06
7	0x3904f995	0.00012681478
8	0x37882526	1.6229762e-05
9	0x37533057	1.2587835e-05
10	0x34d9ac96	4.0544973e-07
11	0x36453ef3	2.9391929e-06
12	0x398b7d8a	0.0002660568
13	0xb71c324a	-9.310033e-06
14	0x38db10f1	0.00010445889
15	0x395522f9	0.00020326291
16	0x382ef9ab	4.1717354e-05
17	0xb7c34f72	-2.3282806e-05
18	0x37dd21f2	2.636106e-05
19	0xb7c158b3	-2.3048697e-05
20	0xb673f790	-3.6353922e-06
21	0xb89c7d21	-7.461967e-05
22	0xb7c5d7a3	-2.3584644e-05
23	0xb88975b9	-6.5545966e-05
24	0xb65804e6	-3.218936e-06
25	0x36b075ba	5.258914e-06
26	0xb7180043	-9.059967e-06
27	0xb7a3f0f4	-1.9543317e-05
28	0xb8846e78	-6.314827e-05
29	0x37cb5430	2.4238689e-05
30	0x374cb18e	1.2200688e-05
31	0xb7cbdb1b	-2.4301515e-05
32	0xb8207b76	-3.8261955e-05
33	0x3800dd6c	3.0723793e-05
34	0xb7d64b1d	-2.5545765e-05
35	0x38bcc683	9.001514e-05
36	0xb85d6a71	-5.2789637e-05
37	0xb51e8a83	-5.906115e-07
38	0xb7256532	-9.858328e-06
39	0xb7abc72c	-2.0477535e-05
40	0x39786fd8	0.00023692788
41	0x386f3dc2	5.7039557e-05
42	0x37226d5e	9.6814165e-06
43	0xb7a438b3	-1.9576726e-05
44	0x365d09ed	3.2937344e-06
45	0xb7de922d	-2.653253e-05
46	0x37ed226a	2.8268627e-05
47	0x39190c27	0.00014595744
48	0xb9089945	-0.00013027068
49	0x38a3309f	7.781502e-05
50	0xb5e7667d	-1.7240669e-06
51	0x375e1de6	1.3239192e-05
52	0x37409bae	1.1480339e-05
53	0x38a18f75	7.703799e-05
54	0xb84db413	-4.9043516e-05
55	0xb893cb31	-7.0473536e-05
56	0x37f915b0	2.9693212e-05
57	0x35f4d94e	1.8242661e-06
58	0xb7b42a51	-2.1477377e-05
59	0x36b44d05	5.3733843e-06
60	0xb6f07e8f	-7.1672907e-06
61	0x38a469e4	7.839853e-05
62	0xb9911c68	-0.0002767772
63	0xb52d7dd5	-6.463063e-07
64	0xb7b866eb	-2.1982434e-05
65	0x3760949e	1.3386043e-05
66	0x385e7ead	5.30469e-05
67	0x38ecefce	0.00011298024
68	0xb8b2f191	-8.532697e-05
69	0xb7c1302b	-2.3029823e-05
70	0x38ed9944	0.000113295886
71	0xb914fc2c	-0.00014208321
72	0x35f56b2d	1.8285115e-06
73	0xb867f8c2	-5.5306366e-05
74	0x38e6cbb0	0.000110051944
75	0x396450a5	0.00021773817
76	0xb9244631	-0.00015666407
77	0x38d7fbb2	0.00010298881
78	0x38402a4c	4.581576e-05
79	0xb58da81e	-1.0554247e-06
80	0x388634ac	6.399429e-05
81	0x3735725b	1.0815066e-05
82	0x38812d2f	6.1596154e-05
83	0xb86962ce	-5.5643548e-05
84	0x37de4553	2.6496744e-05
85	0x37b2604f	2.12641e-05
86	0xb917089b	-0.00014403688
87	0x39455f84	0.00018822966
88	0xb541ad75	-7.2150516e-07
89	0x3837a6eb	4.3786054e-05
90	0x3829b8e6	4.046494e-05
91	0x382fb485	4.1891373e-05
92	0x3865da14	5.4800956e-05
93	0x382d035d	4.1249546e-05
94	0xb84668ed	-4.73046e-05
95	0xb7c2a860	-2.3205008e-05
96	0x391f1f30	0.0001517504
97	0x37eac363	2.7985958e-05
98	0xb7e5b0f8	-2.7381335e-05
99	0x387db1b7	6.048541e-05
100	0x379ad10a	1.8455572e-05
101	0x3853fc2e	5.054118e-05
102	0xb93aa274	-0.00017798861
103	0xb7acd908	-2.060506e-05
104	0x36a734e3	4.9831447e-06
105	0xb4f0582a	-4.476763e-07
106	0x389fe17b	7.62371e-05
107	0xb7986c9d	-1.8170389e-05
108	0xb93718f8	-0.00017461542
109	0xb781c180	-1.5468104e-05
110	0x38342516	4.2949883e-05
111	0xb7bcd056	-2.250836e-05
112	0xb812495b	-3.487743e-05
113	0x36a53f57	4.924757e-06
114	0x379bdac9	1.857932e-05
115	0xb87ca4cd	-6.0234965e-05
116	0x374ffdbd	1.23972395e-05
117	0x37c59b10	2.3556437e-05
118	0x3871ea29	5.7676956e-05
119	0x373044a1	1.0506396e-05
120	0xb8ef0f52	-0.00011399262
121	0x37c76240	2.37684e-05
122	0x38e90fc4	0.00011113242
123	0xb9300f48	-0.0001679036
124	0xb7863295	-1.5997599e-05
125	0xb8e53dfe	-0.00010931118
126	0xb8ecf288	-0.00011298532
127	0x37b1cd22	2.1195567e-05
128	0x3c77fb9f	0.015135675
129	0xbbd310ea	-0.0064412253
130	0x3c704a2b	0.0146661205
131	0xbb281210	-0.0025645532
132	0xbb9c3655	-0.004767219
133	0x3bf39524	0.0074335504
134	0x3c4fdcbc	0.0126869045
135	0x3cbe4003	0.023223883
136	0xb9b26885	-0.0003402868
137	0xbc75d951	-0.015005426
138	0xbb921b3a	-0.004458812
139	0xbbfc2ad5	-0.0076955357
140	0xbbe25c81	-0.006908
141	0x3b8fc5e3	0.0043876036
142	0xbd05af39	-0.03263781
143	0x3bf47e52	0.0074613476
144	0x3bbd01bd	0.0057680295
145	0xbb364c45	-0.0027816456
146	0x3b420e28	0.0029610489
147	0x3b672824	0.0035271728
148	0xbb7b44fb	-0.0038340676
149	0xbcd08e5f	-0.025458513
150	0x3ad26241	0.001605101
151	0x3ba76a21	0.005109087
152	0x3c60fdc1	0.013732375
153	0x3b673a54	0.003528257
154	0x3ce9d7b4	0.028545238
155	0xbbe16da1	-0.006879524
156	0x3b6ca18c	0.0036107032
157	0x3cb1ce75	0.021704892
158	0x3b1f967a	0.0024351166
159	0x3c0f3cff	0.00874257
160	0x3c49bcc0	0.012313068
161	0xbb679a67	-0.0035339834
162	0xbb66f745	-0.00352426
163	0xbb7ac63b	-0.0038265127
164	0xbc7a039b	-0.015259649
165	0x3b6c4998	0.0036054607
166	0xbba49046	-0.0050220815
167	0x38fe8b9d	0.00012137669
168	0x3c112e4b	0.008861135
169	0x3b635847	0.0034690069
170	0xbb3cf966	-0.0028835176
171	0x3b1d6df0	0.0024021827
172	0x3a33fb7c	0.0006865782
173	0x3bb3835b	0.0054783053
174	0x3b11c9ca	0.002224552
175	0xbcffe51f	-0.031237183
176	0x3b776f25	0.0037755456
177	0xbb09e66d	-0.0021041885
178	0x3b1f410d	0.0024300248
179	0xbb59ca62	-0.0033232202
180	0xbbee24f1	-0.0072675874
181	0xbbfdbdb8	-0.0077435635
182	0x3a753ed6	0.00093553716
183	0xbb1a6c6a	-0.0023563155
184	0x3b4af667	0.003096962
185	0xbba8a55f	-0.005146667
186	0x3b9f3555	0.0048586526
187	0x3b2a3493	0.0025971278
188	0x3ba4ed3c	0.0050331634
189	0x3c346ab2	0.011011766
190	0x3a90d11d	0.0011048649
191	0xbc095887	-0.008382923
192	0xbb85c061	-0.0040817712
193	0xbb7da877	-0.003870515
194	0xbb9972f0	-0.004682891
195	0xbc0fe2e4	-0.008782122
196	0xbc145c39	-0.009055191
197	0xbb4ccce7	-0.003125006
198	0xbbec64d7	-0.0072141695
199	0xbc8acce5	-0.016943404
200	0xb9264a8b	-0.00015858763
201	0x3aa94afa	0.0012916022
202	0xbc00e275	-0.007866492
203	0xbcadea04	-0.021229751
204	0xbc918ae6	-0.017766427
205	0x3cc6e1ef	0.024277655
206	0xbbd8d8fe	-0.0066176644
207	0xbb1a7c5e	-0.0023572664
208	0x3b1ef35e	0.0024253945
209	0x3a4e060a	0.0007859176
210	0x3c730f5a	0.014835203
211	0x3bac6151	0.0052606245
212	0x3b639615	0.0034726907
213	0x3a98471b	0.0011617871
214	0xbc501128	-0.012699403
215	0xbd7beaa1	-0.061503056
216	0x3b3eac36	0.0029094345
217	0xbb270fc0	-0.0025491565
218	0xbc90cf80	-0.017677069
219	0x3cfa2882	0.030536894
220	0x3ae86f46	0.0017733357
221	0x3a5c55cb	0.0008405118
222	0xbcbdc51c	-0.023165278
223	0xbc0855e2	-0.008321257
224	0x3b7bb4c3	0.0038407303
225	0xbc378e34	-0.011203337
226	0x3ba71713	0.005099186
227	0x3aec3911	0.0018022378
228	0xbbaf81d6	-0.005356054
229	0x3b3fa403	0.0029242046
230	0x3c8341fe	0.016022678
231	0xbb001e70	-0.0019549392
232	0x3b40ef36	0.0029439456
233	0xbb4cd8ab	-0.0031257074
234	0xbb7b2203	-0.0038319833
235	0x3aba9b56	0.0014236968
236	0x3bbd60a7	0.005779344
237	0xba3dcebd	-0.0007240584
238	0x3bccf0e5	0.006254303
239	0x39d7f015	0.0004118687
240	0xbb68baba	-0.0035511688
241	0x3c8f5ba1	0.017499747
242	0x3d088330	0.033328235
243	0xbc0516bb	-0.008123095
244	0xba87547b	-0.001032486
245	0x3af4284f	0.0018627736
246	0xbc8991e1	-0.016793193
247	0x3ab84132	0.0014057516
248	0xbc8e8e3b	-0.017401805
249	0xbb899788	-0.004198972
250	0xbc0db762	-0.008649679
251	0x3cde1f2f	0.027114479
252	0xbb1b5eb5	-0.0023707573
253	0xbc83b976	-0.016079646
254	0x3c07b362	0.008282514
255	0xbb8888b4	-0.004166687

gru.weight_hh_l1 f4 [384, 128]
0	0xb41f59d7	-1.4840712e-07
1	0x37b9545b	2.2093e-05
2	0x38d0b8aa	9.952609e-05
3	0x38d60019	0.000102043334
4	0xb6468516	-2.9581765e-06
5	0x36e2ff6e	6.765061e-06
6	0xb81a6536	-3.681072e-05
7	0x376f0abc	1.4248009e-05
8	0x3851e68f	5.0044207e-05
9	0xb4bb2588	-3.4858772e-07
10	0xb81c17af	-3.7215355e-05
11	0x378fb23e	1.7129929e-05
12	0xb78d3d67	-1.6837103e-05
13	0x388628b7	6.397202e-05
14	0x39036a09	0.00012532635
15	0xb5539f0e	-7.883508e-07
16	0x37f64843	2.9359135e-05
17	0x37e78596	2.7599552e-05
18	0xb8653bbb	-5.4653483e-05
19	0xb8bd2ce6	-9.020585e-05
20	0x379dc9ff	1.880992e-05
21	0x39b85cc8	0.00035164342
22	0xb85c7885	-5.256433e-05
23	0xb7bee2e7	-2.2755425e-05
24	0x390f376b	0.00013658188
25	0x37cd7dd2	2.4496494e-05
26	0xb6c559b0	-5.8814985e-06
27	0x37aa96b3	2.0335754e-05
28	0x38ae55be	8.312937e-05
29	0x3940dff3	0.00018393974
30	0x38e10fb5	0.00010731762
31	0xb88c36f5	-6.685957e-05
32	0x37637a05	1.3558664e-05
33	0x38322c44	4.2479733e-05
34	0xb7eb4838	-2.8047813e-05
35	0x372a0d0d	1.0135828e-05
36	0xb9c0047b	-0.00036624432
37	0x39b2ae0f	0.0003408049
38	0xb8444f9d	-4.6804187e-05
39	0x381dab1c	3.7591075e-05
40	0x3873d0f1	5.8130307e-05
41	0xb75d4592	-1.3188825e-05
42	0x37085f46	8.128414e-06
43	0xb8117318	-3.4677883e-05
44	0x38b5fb87	8.677603e-05
45	0x381fb34d	3.807554e-05
46	0xb8d02f84	-9.9270634e-05
47	0xb7dd1296	-2.6353908e-05
48	0xb8482c22	-4.7724818e-05
49	0x38202504	3.8181446e-05
50	0xb6c8145f	-5.962836e-06
51	0x37f855a5	2.9603785e-05
52	0x37d2cae4	2.512843e-05
53	0xb795972d	-1.783258e-05
54	0xb896cc68	-7.190631e-05
55	0xb892cfb7	-7.0005124e-05
56	0xb88e5e3d	-6.788641e-05
57	0xb994a00f	-0.00028348013
58	0x398d2edf	0.00026928537
59	0x3823d68c	3.906204e-05
60	0x371047d3	8.599792e-06
61	0x37385410	1.0986827e-05
62	0x38a7bb97	7.998122e-05
63	0xba088b2c	-0.00052087265
64	0x37ed94b2	2.8321843e-05
65	0x381b81b6	3.7075682e-05
66	0x37d9f3c2	2.5981924e-05
67	0x3a17bc09	0.00057882123
68	0xb7b3880d	-2.1401816e-05
69	0xb9540838	-0.00020220957
70	0x39223aae	0.00015471384
71	0x37d30e85	2.5159921e-05
72	0x37c0f8dc	2.3004068e-05
73	0xb950d90c	-0.00019917282
74	0xb996ea61	-0.00028784855
75	0xb994a38c	-0.00028350612
76	0xb816d9c9	-3.5965615e-05
77	0x371835ac	9.0724025e-06
78	0x3794d427	1.7741766e-05
79	0xb7cf1814	-2.4687535e-05
80	0xb8d40aeb	-0.000101109814
81	0x376a5771	1.3967846e-05
82	0xb7a11ae4	-1.9205218e-05
83	0x386ddedd	5.671276e-05
84	0xb8b641b5	-8.690675e-05
85	0xba61fb5c	-0.00086205243
86	0xb6f51a97	-7.3046645e-06
87	0x388bf9cc	6.674565e-05
88	0xb925a348	-0.00015796453
89	0x3890e2d1	6.908703e-05
90	0x382b90bd	4.0904375e-05
91	0x37c2cb64	2.3221313e-05
92	0xb8ad78bc	-8.2717714e-05
93	0x3a03daa8	0.0005029836
94	0xb880cb1c	-6.141348e-05
95	0xb9fcb913	-0.00048203077
96	0x38703443	5.726913e-05
97	0x36dc29d7	6.5613817e-06
98	0x3867cc66	5.5265053e-05
99	0xb76e5f9b	-1.4208165e-05
100	0xb8e8122a	-0.000110660054
101	0x3929b237	0.00016183486
102	0xb892285b	-6.969339e-05
103	0xb79b46f3	-1.8510478e-05
104	0x38e4207c	0.00010877938
105	0x37880603	1.6215263e-05
106	0xb887249a	-6.444119e-05
107	0xb8308e93	-4.2094453e-05
108	0xb6057c51	-1.9890906e-06
109	0x38cd2f9b	9.784029e-05
110	0xb8118781	-3.469689e-05
111	0xb80dd443	-3.3814704e-05
112	0x379b2143	1.8492929e-05
113	0xb8e5575b	-0.00010935842
114	0x38413851	4.6067235e-05
115	0xb831a47c	-4.2353277e-05
116	0x38d44544	0.000101218495
117	0x3a1d8e5c	0.0006010288
118	0x37dd115b	2.6353335e-05
119	0x3805097e	3.171851e-05
120	0xb8233376	-3.8910155e-05
121	0x38381545	4.3888827e-05
122	0xb70146b9	-7.705466e-06
123	0xb97fb6d0	-0.00024386798
124	0x375c33a0	1.3125042e-05
125	0xb8803d23	-6.114903e-05
126	0x381557ff	3.560632e-05
127	0x384b9e24	4.854625e-05
128	0xbb26d4f3	-0.0025456517
129	0xbce9285d	-0.02846163
130	0xbb1e967e	-0.0024198587
131	0xbb2837f3	-0.0025668114
132	0x39aa3e03	0.0003247113
133	0xbb4a95a0	-0.0030911937
134	0x3b24488d	0.0025067658
135	0x3cabccf0	0.020971745
136	0xbbaad067	-0.005212832
137	0x3d0d8f14	0.034560278
138	0x3ad30787	0.0016100266
139	0xbae4cb6c	-0.0017455644
140	0x3c6070ec	0.013698798
141	0xbcbc5cb3	-0.022993421
142	0xbc9569ea	-0.01823898
143	0xbb9be251	-0.0047572036
144	0x3cb7a232	0.022416208
145	0x3cb7eb88	0.022451177
146	0xbce668b5	-0.0281261
147	0x3bec541e	0.007212176
148	0xbbd70057	-0.00656132
149	0x3d0c04b8	0.034184188
150	0x3b8f1d41	0.004367501
151	0xbcb59248	-0.022164479
152	0x3cf86fc6	0.030326735
153	0x3cb4d429	0.022073822
154	0xb93f0c86	-0.00018219845
155	0xbb332fa6	-0.0027341633
156	0x3d318bad	0.043346096
157	0xbd1cbe60	-0.038267493
158	0xbd03b14f	-0.032151517
159	0x3b836657	0.0040100026
160	0xbc8b7e12	-0.017027888
161	0xbbc3f451	-0.0059800525
162	0xbc71e31d	-0.014763621
163	0xbbcf17c6	-0.0063199727
164	0xbd0d4123	-0.034485947
165	0x3cbeb7e8	0.023281053
166	0xbcc6ae4e	-0.024253037
167	0x3cbececf	0.023291973
168	0xbacaf46a	-0.0015484218
169	0xbcab17e5	-0.020885417
170	0x3b63f4ca	0.0034783357
171	0xbcbd80c8	-0.023132697
172	0xb794ed2c	-1.7753417e-05
173	0xbc85855b	-0.01629894
174	0xbcbf3837	-0.023342235
175	0xbc9784f4	-0.018496014
176	0x3a61f331	0.0008619307
177	0x3cbf5fd5	0.023361126
178	0xbb6dc1f5	-0.0036278937
179	0xbb34ca4b	-0.0027586396
180	0xbba8b549	-0.005148564
181	0x3b3d2de5	0.0028866467
182	0xbc6945b6	-0.014237812
183	0xbcd5a8f2	-0.026081536
184	0x3b2862ab	0.0025693576
185	0xbd00f4b0	-0.031483352
186	0x3d7109a6	0.058847092
187	0xbbb1aa41	-0.005421907
188	0xbb4925ea	-0.0030692765
189	0xbb6c47d2	-0.003605355
190	0xbb8013fc	-0.0039086323
191	0xbd5a3b35	-0.05327912
192	0x3cb817cd	0.022472287
193	0xbb72e8c8	-0.0037065018
194	0x3ae3108f	0.001732366
195	0x3d4bc362	0.04974688
196	0xbcb2250f	-0.021746187
197	0xbc9d167e	-0.019175764
198	0xbc589e53	-0.013221341
199	0x3cb72c30	0.022359937
200	0x3cb3c0c9	0.021942513
201	0x3b94765a	0.00453071
202	0xbcbab93c	-0.022793405
203	0x3ba2e6af	0.0049713473
204	0xbcbde761	-0.02318162
205	0xbb24e77b	-0.0025162387
206	0xbb002b35	-0.0019557003
207	0xbcb113f7	-0.021615965
208	0xbcaaba78	-0.020840868
209	0x3c58995d	0.013220158
210	0xbcaffd0f	-0.021482972
211	0xbb9d8007	-0.004806522
212	0x3ca2ae92	0.019858632
213	0xbd94eb0c	-0.07271394
214	0x3a760768	0.0009385259
215	0xbbd36a51	-0.006451883
216	0xbd840040	-0.0644536
217	0x3a55df0e	0.0008158543
218	0xbcaab8d0	-0.020840079
219	0x3cb04f00	0.021522045
220	0xbac434b4	-0.001496932
221	0x3d82fd92	0.06396021
222	0x3b3eac65	0.0029094454
223	0xbd26f558	-0.04076132
224	0xbb66304c	-0.0035124002
225	0xba99b033	-0.0011725485
226	0xba678b1e	-0.0008832681
227	0x3b040352	0.002014358
228	0x3a16dbf6	0.00057548226
229	0x3d02162a	0.03175942
230	0xbc7d0e51	-0.015445308
231	0x3af086b1	0.0018350688
232	0xbb2a39cd	-0.0025974393
233	0xbadfd872	-0.0017078056
234	0x3b83c46b	0.0040212176
235	0x3acd1622	0.0015646855
236	0xbb0fcf3a	-0.0021943585
237	0xbc176468	-0.009240247
238	0x3a953c87	0.0011385836
239	0xbb78f0a0	-0.003798522
240	0x39eb8e90	0.0004492891
241	0x3b493b9c	0.0030705696
242	0x3c7a1624	0.015264068
243	0x3b04da50	0.0020271726
244	0xbae9a9c4	-0.0017827083
245	0x3d26ab2a	0.04069058
246	0xbb1dc004	-0.002407075
247	0x3cb9acad	0.022665346
248	0x3b9f1d7a	0.004855809
249	0xbca0ec14	-0.01964382
250	0xbcc2650b	-0.023729822
251	0x3b643b1e	0.0034825276
252	0x3b41a67d	0.0029548698
253	0x3b2b6089	0.0026150069
254	0xbbd2186f	-0.006411604
255	0x3cafbf1f	0.021453438

gru.bias_ih_l1 f4 [384]
0	0xb8b98d0c	-8.8477595e-05
1	0x3d94b9d7	0.07262009
2	0xbba5c800	-0.0050592422
3	0xbb2afa53	-0.0026089146
4	0xbb0120b0	-0.001970332
5	0xbb31983c	-0.0027098795
6	0xbb612ae5	-0.0034357843
7	0x3d469026	0.048477314
8	0xbb781b45	-0.003785805
9	0x3de04a94	0.10951725
10	0xbb45e5ef	-0.0030196866
11	0xbad60b65	-0.00163303
12	0x3d42983a	0.047508456
13	0x3e1a7347	0.15083037
14	0x3d2d3f37	0.042296614
15	0xba20609e	-0.00061179127
16	0x3d525b54	0.05135663
17	0x3d51153d	0.051045645
18	0x3d234f7b	0.03987072
19	0x3e0db696	0.13839182
20	0xba7d9e52	-0.00096747756
21	0x3df60e8f	0.120144956
22	0xbb06cd02	-0.0020568972
23	0x3d50271f	0.05081856
24	0x3d578be3	0.05262364
25	0x3d4da2d4	0.050204113
26	0xbb5b5407	-0.0033466832
27	0xbb001efc	-0.0019549718
28	0x3eac6116	0.3366782
29	0x3dbe2245	0.0928388
30	0x3dd353cc	0.10318717
31	0xbb8a18da	-0.0042143883
32	0x3d02c113	0.03192241
33	0xbb94a123	-0.0045358106
34	0x3ca949ed	0.020665133
35	0xbb60cfa7	-0.0034303458
36	0x3c73a36f	0.014870509
37	0x3cc33868	0.023830608
38	0x3d5467bc	0.05185674
39	0x3d5368d9	0.051613662
40	0xbb4afdfa	-0.0030974136
41	0x3d472dd9	0.048627708
42	0x3a1251de	0.0005581657
43	0x3d5345c4	0.051580206
44	0xba80aa19	-0.0009816318
45	0x3d5d7ef2	0.054076143
46	0x3d92d117	0.07168787
47	0x3c4478f5	0.011991729
48	0xbb7f02e9	-0.0038911647
49	0x3d54aab8	0.051920623
50	0xba20cee6	-0.0006134346
51	0xbb227ece	-0.002479482
52	0xbb272b5c	-0.0025508022
53	0xbaba6937	-0.001422203
54	0x3dc15d51	0.09441627
55	0x3d549200	0.05189705
56	0xba26a3e7	-0.0006356821
57	0x3d6a00d0	0.05712968
58	0x3d485064	0.04890479
59	0xbb5ceb89	-0.0033709726
60	0xbaaab0c1	-0.0013022647
61	0xba064b32	-0.00051228993
62	0xbb911b85	-0.0044283294
63	0x3d02f6f4	0.031973794
64	0x3d4fac55	0.050701458
65	0xbae899a9	-0.001774599
66	0xba2f0e1a	-0.00066778215
67	0x3de0e91e	0.109819636
68	0x3d4b7c5f	0.049679156
69	0x3c8c5ab4	0.017133094
70	0x3c1b5886	0.009481555
71	0x3da68ace	0.08131944
72	0x3d4de722	0.050269254
73	0x3acf0bf1	0.0015796405
74	0x3c768e36	0.015048554
75	0x3e28ca81	0.16483499
76	0x3d53a009	0.051666293
77	0xba1523c1	-0.00056892267
78	0xbb4f9c14	-0.0031678723
79	0x3d4ab7f8	0.049491853
80	0x3ccea39d	0.025224501
81	0x3e364ff7	0.17803942
82	0x3d4a5db0	0.049405754
83	0x3a19b4a8	0.00058634067
84	0x3d06b6d7	0.032889213
85	0x3e02d26a	0.12775579
86	0xbb3fe086	-0.0029278114
87	0xbb07f476	-0.0020745075
88	0x3d54cef9	0.051955197
89	0xb9b7ba27	-0.00035043174
90	0x3d1d3c07	0.038387325
91	0x3d49db42	0.049281366
92	0xbb151138	-0.002274586
93	0x3d8028d5	0.06257788
94	0xbabc8c3a	-0.0014385052
95	0x3e0d362c	0.13790196
96	0xbb24aa1d	-0.002512581
97	0xba84effe	-0.0010142324
98	0xbb06cfb7	-0.0020570585
99	0xba8c1e6f	-0.0010690222
100	0xbb9763c0	-0.0046200454
101	0x3d63421a	0.05548296
102	0x3dc3ed8e	0.09566794
103	0xbab03aaf	-0.0013445223
104	0xbb93d8e1	-0.004511938
105	0xba1627c3	-0.0005727971
106	0xbba426cd	-0.005009508
107	0xbb627967	-0.0034557225
108	0xba6adaaa	-0.0008958975
109	0x3d291805	0.041282672
110	0xbb154975	-0.002277938
111	0xbb370727	-0.0027927847
112	0xbabe94ed	-0.0014540233
113	0xbaaaf41f	-0.0013042724
114	0x3dc8e58f	0.0980941
115	0xbaa42f3a	-0.0012526282
116	0xbb004ba4	-0.0019576335
117	0x3e1fe2c8	0.15613854
118	0xbb2f45f4	-0.0026744576
119	0x3d541279	0.05177543
120	0xbb8cb975	-0.004294569
121	0x3e0a88d9	0.13528766
122	0x3cd5757c	0.026056997
123	0x3b0e64de	0.0021727602
124	0xb94a1b9f	-0.00019274511
125	0xbb86569e	-0.004099681
126	0xbab0156c	-0.0013434119
127	0x3dab1740	0.08354044
128	0xb68d9fa1	-4.2207107e-06
129	0xbe587610	-0.21138787
130	0x3ab753f0	0.0013986807
131	0x3946f761	0.00018974907
132	0x3a012384	0.0004926252
133	0x3a171046	0.0005762618
134	0x39fc2890	0.00048095407
135	0xbd829b94	-0.063773304
136	0x393cef55	0.00018018235
137	0xbdc4c7d9	-0.096084304
138	0x39c2455c	0.0003705424
139	0xba2cb8b8	-0.00065888045
140	0xbd13cf2a	-0.03608624
141	0xbdeebb4a	-0.11656816
142	0xbe31b464	-0.1735397
143	0x39877ae4	0.00025840767
144	0xbd893607	-0.06699758
145	0xbd8946ae	-0.06702934
146	0xbe348e00	-0.17632294
147	0xbe3e327d	-0.18573947
148	0x3b0dc56f	0.0021632572
149	0xbdf39775	-0.118941225
150	0x38d28bc6	0.00010039615
151	0xbd88f631	-0.06687582
152	0xbd7e4e96	-0.062086664
153	0xbd871c04	-0.065971404
154	0x38c31c01	9.303541e-05
155	0x3a15d7fd	0.00057160837
156	0x3c5a3577	0.013318411
157	0xbdea57a6	-0.11442499
158	0x3dbc03cb	0.09180411
159	0x3a51e858	0.0008007339
160	0xbdcd8ae9	-0.10036261
161	0x3a4a6771	0.00077211024
162	0xbe391df8	-0.18077838
163	0x3b034986	0.0020032837
164	0xbe0b8925	-0.13626535
165	0xbe949679	-0.29021052
166	0xbd89382e	-0.067001686
167	0xbd897cf1	-0.06713284
168	0xb9c031ea	-0.00036658283
169	0xbd8319b7	-0.06401389
170	0xb89f20cc	-7.58782e-05
171	0xbd8a0657	-0.067394905
172	0xbae70fef	-0.001762865
173	0xbd994116	-0.07483117
174	0xbdc52bf4	-0.09627524
175	0xbe438c6b	-0.19096534
176	0x3a5a76e3	0.00083337555
177	0xbd89ff30	-0.06738126
178	0x395ca7e6	0.00021043382
179	0x3667ced3	3.454207e-06
180	0x38fb95c6	0.0001199651
181	0x39c9b1f0	0.0003847028
182	0xbd95377e	-0.07285975
183	0xbd8709f0	-0.06593692
184	0xba62ac23	-0.0008646866
185	0xbd7486e8	-0.05969897
186	0xbe3c2e6c	-0.18377084
187	0x3a17ad0a	0.00057859777
188	0x3986cae4	0.00025709637
189	0x3993b89f	0.00028175578
190	0x3a7543d7	0.0009356117
191	0xbe622934	-0.2208603
192	0xbd881424	-0.066444665
193	0xb9f69be2	-0.00047036918
194	0x397bc2bb	0.00024009768
195	0xbd0af359	-0.03392348
196	0xbd85d1c4	-0.0653415
197	0xbdfb47bf	-0.12269544
198	0xbdf5212b	-0.11969217
199	0xbdba7414	-0.091041714
200	0xbd875eba	-0.066098645
201	0xbb2c59b3	-0.0026298582
202	0xbe07daec	-0.13267106
203	0xbe4ac391	-0.19801165
204	0xbd89edda	-0.0673482
205	0x398613fa	0.00025573355
206	0x39dc6c1f	0.00042042226
207	0xbd8466db	-0.064649306
208	0xbe36a230	-0.17835307
209	0xbe2cbc97	-0.16868816
210	0xbd852641	-0.06501437
211	0xba873bb9	-0.0010317481
212	0xbe25a9a3	-0.16177993
213	0x3d7fc714	0.062445715
214	0x398f4725	0.00027328092
215	0x3891c714	6.95122e-05
216	0xbe4f1adf	-0.20225094
217	0xbad30d22	-0.0016101936
218	0xbe7c81e8	-0.2465893
219	0xbd83f28a	-0.06442745
220	0xb986da9a	-0.00025721343
221	0xbe368748	-0.17825043
222	0xb7b31500	-2.1348242e-05
223	0xbe0765ad	-0.1322238
224	0x3a56c9f7	0.0008193547
225	0x39dff7db	0.0004271854
226	0xb9287c37	-0.00016068002
227	0xba21db8c	-0.00061743776
228	0x3abd4495	0.0014439995
229	0xbd868fb0	-0.06570375
230	0xbd931fad	-0.07183776
231	0x3999a23c	0.00029303308
232	0x3ac6e6c8	0.0015174979
233	0xb9b1d864	-0.00033921294
234	0x3a372d57	0.0006987652
235	0xb7efee20	-2.8601906e-05
236	0x39484c9d	0.00019102027
237	0xbc8ed99e	-0.017437752
238	0xba4bc046	-0.00077724864
239	0xb9d98c83	-0.00041494155
240	0xb6b636a4	-5.4303837e-06
241	0xba2c1314	-0.0006564122
242	0xbde0db9d	-0.10979388
243	0xbab708d8	-0.0013964428
244	0xb9420388	-0.00018502597
245	0x3d79d010	0.06098944
246	0xb997c144	-0.00028944958
247	0xbd89a67c	-0.067212075
248	0x3aaec10e	0.0013332681
249	0xbdb5afff	-0.08871459
250	0xbe413831	-0.18869092
251	0xbb6fc054	-0.0036583142
252	0x3989a7e9	0.0002625578
253	0xb88277dd	-6.221209e-05
254	0x3a6dacd3	0.00090665853
255	0xbdc83217	-0.09775179
